{
  "nodes": [
    {
      "op": "null", 
      "name": "data", 
      "inputs": []
    }, 
    {
      "op": "Cast", 
      "name": "cast0", 
      "attrs": {"dtype": "float16"}, 
      "inputs": [[0, 0, 0]]
    }, 
    {
      "op": "null", 
      "name": "conv_0_weight", 
      "attrs": {
        "kernel": "(3, 3)", 
        "no_bias": "True", 
        "num_filter": "32", 
        "pad": "(1, 1)", 
        "stride": "(1, 1)"
      }, 
      "inputs": []
    }, 
    {
      "op": "Convolution", 
      "name": "conv_0", 
      "attrs": {
        "kernel": "(3, 3)", 
        "no_bias": "True", 
        "num_filter": "32", 
        "pad": "(1, 1)", 
        "stride": "(1, 1)"
      }, 
      "inputs": [[1, 0, 0], [2, 0, 0]]
    }, 
    {
      "op": "null", 
      "name": "bn_0_gamma", 
      "attrs": {
        "__wd_mult__": "0.0", 
        "eps": "1e-05", 
        "momentum": "0.9"
      }, 
      "inputs": []
    }, 
    {
      "op": "null", 
      "name": "bn_0_beta", 
      "attrs": {
        "__wd_mult__": "0.0", 
        "eps": "1e-05", 
        "momentum": "0.9"
      }, 
      "inputs": []
    }, 
    {
      "op": "null", 
      "name": "bn_0_moving_mean", 
      "attrs": {
        "__init__": "[\"zero\", {}]", 
        "__wd_mult__": "0.0", 
        "eps": "1e-05", 
        "momentum": "0.9"
      }, 
      "inputs": []
    }, 
    {
      "op": "null", 
      "name": "bn_0_moving_var", 
      "attrs": {
        "__init__": "[\"one\", {}]", 
        "__wd_mult__": "0.0", 
        "eps": "1e-05", 
        "momentum": "0.9"
      }, 
      "inputs": []
    }, 
    {
      "op": "BatchNorm", 
      "name": "bn_0", 
      "attrs": {
        "__wd_mult__": "0.0", 
        "eps": "1e-05", 
        "momentum": "0.9"
      }, 
      "inputs": [[3, 0, 0], [4, 0, 0], [5, 0, 0], [6, 0, 1], [7, 0, 1]]
    }, 
    {
      "op": "LeakyReLU", 
      "name": "leaky_relu_0", 
      "attrs": {
        "act_type": "leaky", 
        "slope": "0.1"
      }, 
      "inputs": [[8, 0, 0]]
    }, 
    {
      "op": "null", 
      "name": "conv_1_weight", 
      "attrs": {
        "kernel": "(3, 3)", 
        "no_bias": "True", 
        "num_filter": "64", 
        "pad": "(1, 1)", 
        "stride": "(2, 2)"
      }, 
      "inputs": []
    }, 
    {
      "op": "Convolution", 
      "name": "conv_1", 
      "attrs": {
        "kernel": "(3, 3)", 
        "no_bias": "True", 
        "num_filter": "64", 
        "pad": "(1, 1)", 
        "stride": "(2, 2)"
      }, 
      "inputs": [[9, 0, 0], [10, 0, 0]]
    }, 
    {
      "op": "null", 
      "name": "bn_1_gamma", 
      "attrs": {
        "__wd_mult__": "0.0", 
        "eps": "1e-05", 
        "momentum": "0.9"
      }, 
      "inputs": []
    }, 
    {
      "op": "null", 
      "name": "bn_1_beta", 
      "attrs": {
        "__wd_mult__": "0.0", 
        "eps": "1e-05", 
        "momentum": "0.9"
      }, 
      "inputs": []
    }, 
    {
      "op": "null", 
      "name": "bn_1_moving_mean", 
      "attrs": {
        "__init__": "[\"zero\", {}]", 
        "__wd_mult__": "0.0", 
        "eps": "1e-05", 
        "momentum": "0.9"
      }, 
      "inputs": []
    }, 
    {
      "op": "null", 
      "name": "bn_1_moving_var", 
      "attrs": {
        "__init__": "[\"one\", {}]", 
        "__wd_mult__": "0.0", 
        "eps": "1e-05", 
        "momentum": "0.9"
      }, 
      "inputs": []
    }, 
    {
      "op": "BatchNorm", 
      "name": "bn_1", 
      "attrs": {
        "__wd_mult__": "0.0", 
        "eps": "1e-05", 
        "momentum": "0.9"
      }, 
      "inputs": [[11, 0, 0], [12, 0, 0], [13, 0, 0], [14, 0, 1], [15, 0, 1]]
    }, 
    {
      "op": "LeakyReLU", 
      "name": "leaky_relu_1", 
      "attrs": {
        "act_type": "leaky", 
        "slope": "0.1"
      }, 
      "inputs": [[16, 0, 0]]
    }, 
    {
      "op": "null", 
      "name": "conv_2_weight", 
      "attrs": {
        "kernel": "(1, 1)", 
        "no_bias": "True", 
        "num_filter": "32", 
        "pad": "(0, 0)", 
        "stride": "(1, 1)"
      }, 
      "inputs": []
    }, 
    {
      "op": "Convolution", 
      "name": "conv_2", 
      "attrs": {
        "kernel": "(1, 1)", 
        "no_bias": "True", 
        "num_filter": "32", 
        "pad": "(0, 0)", 
        "stride": "(1, 1)"
      }, 
      "inputs": [[17, 0, 0], [18, 0, 0]]
    }, 
    {
      "op": "null", 
      "name": "bn_2_gamma", 
      "attrs": {
        "__wd_mult__": "0.0", 
        "eps": "1e-05", 
        "momentum": "0.9"
      }, 
      "inputs": []
    }, 
    {
      "op": "null", 
      "name": "bn_2_beta", 
      "attrs": {
        "__wd_mult__": "0.0", 
        "eps": "1e-05", 
        "momentum": "0.9"
      }, 
      "inputs": []
    }, 
    {
      "op": "null", 
      "name": "bn_2_moving_mean", 
      "attrs": {
        "__init__": "[\"zero\", {}]", 
        "__wd_mult__": "0.0", 
        "eps": "1e-05", 
        "momentum": "0.9"
      }, 
      "inputs": []
    }, 
    {
      "op": "null", 
      "name": "bn_2_moving_var", 
      "attrs": {
        "__init__": "[\"one\", {}]", 
        "__wd_mult__": "0.0", 
        "eps": "1e-05", 
        "momentum": "0.9"
      }, 
      "inputs": []
    }, 
    {
      "op": "BatchNorm", 
      "name": "bn_2", 
      "attrs": {
        "__wd_mult__": "0.0", 
        "eps": "1e-05", 
        "momentum": "0.9"
      }, 
      "inputs": [[19, 0, 0], [20, 0, 0], [21, 0, 0], [22, 0, 1], [23, 0, 1]]
    }, 
    {
      "op": "LeakyReLU", 
      "name": "leaky_relu_2", 
      "attrs": {
        "act_type": "leaky", 
        "slope": "0.1"
      }, 
      "inputs": [[24, 0, 0]]
    }, 
    {
      "op": "null", 
      "name": "conv_3_weight", 
      "attrs": {
        "kernel": "(3, 3)", 
        "no_bias": "True", 
        "num_filter": "64", 
        "pad": "(1, 1)", 
        "stride": "(1, 1)"
      }, 
      "inputs": []
    }, 
    {
      "op": "Convolution", 
      "name": "conv_3", 
      "attrs": {
        "kernel": "(3, 3)", 
        "no_bias": "True", 
        "num_filter": "64", 
        "pad": "(1, 1)", 
        "stride": "(1, 1)"
      }, 
      "inputs": [[25, 0, 0], [26, 0, 0]]
    }, 
    {
      "op": "null", 
      "name": "bn_3_gamma", 
      "attrs": {
        "__wd_mult__": "0.0", 
        "eps": "1e-05", 
        "momentum": "0.9"
      }, 
      "inputs": []
    }, 
    {
      "op": "null", 
      "name": "bn_3_beta", 
      "attrs": {
        "__wd_mult__": "0.0", 
        "eps": "1e-05", 
        "momentum": "0.9"
      }, 
      "inputs": []
    }, 
    {
      "op": "null", 
      "name": "bn_3_moving_mean", 
      "attrs": {
        "__init__": "[\"zero\", {}]", 
        "__wd_mult__": "0.0", 
        "eps": "1e-05", 
        "momentum": "0.9"
      }, 
      "inputs": []
    }, 
    {
      "op": "null", 
      "name": "bn_3_moving_var", 
      "attrs": {
        "__init__": "[\"one\", {}]", 
        "__wd_mult__": "0.0", 
        "eps": "1e-05", 
        "momentum": "0.9"
      }, 
      "inputs": []
    }, 
    {
      "op": "BatchNorm", 
      "name": "bn_3", 
      "attrs": {
        "__wd_mult__": "0.0", 
        "eps": "1e-05", 
        "momentum": "0.9"
      }, 
      "inputs": [[27, 0, 0], [28, 0, 0], [29, 0, 0], [30, 0, 1], [31, 0, 1]]
    }, 
    {
      "op": "LeakyReLU", 
      "name": "leaky_relu_3", 
      "attrs": {
        "act_type": "leaky", 
        "slope": "0.1"
      }, 
      "inputs": [[32, 0, 0]]
    }, 
    {
      "op": "elemwise_add", 
      "name": "_plus0", 
      "inputs": [[33, 0, 0], [17, 0, 0]]
    }, 
    {
      "op": "null", 
      "name": "conv_4_weight", 
      "attrs": {
        "kernel": "(3, 3)", 
        "no_bias": "True", 
        "num_filter": "128", 
        "pad": "(1, 1)", 
        "stride": "(2, 2)"
      }, 
      "inputs": []
    }, 
    {
      "op": "Convolution", 
      "name": "conv_4", 
      "attrs": {
        "kernel": "(3, 3)", 
        "no_bias": "True", 
        "num_filter": "128", 
        "pad": "(1, 1)", 
        "stride": "(2, 2)"
      }, 
      "inputs": [[34, 0, 0], [35, 0, 0]]
    }, 
    {
      "op": "null", 
      "name": "bn_4_gamma", 
      "attrs": {
        "__wd_mult__": "0.0", 
        "eps": "1e-05", 
        "momentum": "0.9"
      }, 
      "inputs": []
    }, 
    {
      "op": "null", 
      "name": "bn_4_beta", 
      "attrs": {
        "__wd_mult__": "0.0", 
        "eps": "1e-05", 
        "momentum": "0.9"
      }, 
      "inputs": []
    }, 
    {
      "op": "null", 
      "name": "bn_4_moving_mean", 
      "attrs": {
        "__init__": "[\"zero\", {}]", 
        "__wd_mult__": "0.0", 
        "eps": "1e-05", 
        "momentum": "0.9"
      }, 
      "inputs": []
    }, 
    {
      "op": "null", 
      "name": "bn_4_moving_var", 
      "attrs": {
        "__init__": "[\"one\", {}]", 
        "__wd_mult__": "0.0", 
        "eps": "1e-05", 
        "momentum": "0.9"
      }, 
      "inputs": []
    }, 
    {
      "op": "BatchNorm", 
      "name": "bn_4", 
      "attrs": {
        "__wd_mult__": "0.0", 
        "eps": "1e-05", 
        "momentum": "0.9"
      }, 
      "inputs": [[36, 0, 0], [37, 0, 0], [38, 0, 0], [39, 0, 1], [40, 0, 1]]
    }, 
    {
      "op": "LeakyReLU", 
      "name": "leaky_relu_4", 
      "attrs": {
        "act_type": "leaky", 
        "slope": "0.1"
      }, 
      "inputs": [[41, 0, 0]]
    }, 
    {
      "op": "null", 
      "name": "conv_5_weight", 
      "attrs": {
        "kernel": "(1, 1)", 
        "no_bias": "True", 
        "num_filter": "64", 
        "pad": "(0, 0)", 
        "stride": "(1, 1)"
      }, 
      "inputs": []
    }, 
    {
      "op": "Convolution", 
      "name": "conv_5", 
      "attrs": {
        "kernel": "(1, 1)", 
        "no_bias": "True", 
        "num_filter": "64", 
        "pad": "(0, 0)", 
        "stride": "(1, 1)"
      }, 
      "inputs": [[42, 0, 0], [43, 0, 0]]
    }, 
    {
      "op": "null", 
      "name": "bn_5_gamma", 
      "attrs": {
        "__wd_mult__": "0.0", 
        "eps": "1e-05", 
        "momentum": "0.9"
      }, 
      "inputs": []
    }, 
    {
      "op": "null", 
      "name": "bn_5_beta", 
      "attrs": {
        "__wd_mult__": "0.0", 
        "eps": "1e-05", 
        "momentum": "0.9"
      }, 
      "inputs": []
    }, 
    {
      "op": "null", 
      "name": "bn_5_moving_mean", 
      "attrs": {
        "__init__": "[\"zero\", {}]", 
        "__wd_mult__": "0.0", 
        "eps": "1e-05", 
        "momentum": "0.9"
      }, 
      "inputs": []
    }, 
    {
      "op": "null", 
      "name": "bn_5_moving_var", 
      "attrs": {
        "__init__": "[\"one\", {}]", 
        "__wd_mult__": "0.0", 
        "eps": "1e-05", 
        "momentum": "0.9"
      }, 
      "inputs": []
    }, 
    {
      "op": "BatchNorm", 
      "name": "bn_5", 
      "attrs": {
        "__wd_mult__": "0.0", 
        "eps": "1e-05", 
        "momentum": "0.9"
      }, 
      "inputs": [[44, 0, 0], [45, 0, 0], [46, 0, 0], [47, 0, 1], [48, 0, 1]]
    }, 
    {
      "op": "LeakyReLU", 
      "name": "leaky_relu_5", 
      "attrs": {
        "act_type": "leaky", 
        "slope": "0.1"
      }, 
      "inputs": [[49, 0, 0]]
    }, 
    {
      "op": "null", 
      "name": "conv_6_weight", 
      "attrs": {
        "kernel": "(3, 3)", 
        "no_bias": "True", 
        "num_filter": "128", 
        "pad": "(1, 1)", 
        "stride": "(1, 1)"
      }, 
      "inputs": []
    }, 
    {
      "op": "Convolution", 
      "name": "conv_6", 
      "attrs": {
        "kernel": "(3, 3)", 
        "no_bias": "True", 
        "num_filter": "128", 
        "pad": "(1, 1)", 
        "stride": "(1, 1)"
      }, 
      "inputs": [[50, 0, 0], [51, 0, 0]]
    }, 
    {
      "op": "null", 
      "name": "bn_6_gamma", 
      "attrs": {
        "__wd_mult__": "0.0", 
        "eps": "1e-05", 
        "momentum": "0.9"
      }, 
      "inputs": []
    }, 
    {
      "op": "null", 
      "name": "bn_6_beta", 
      "attrs": {
        "__wd_mult__": "0.0", 
        "eps": "1e-05", 
        "momentum": "0.9"
      }, 
      "inputs": []
    }, 
    {
      "op": "null", 
      "name": "bn_6_moving_mean", 
      "attrs": {
        "__init__": "[\"zero\", {}]", 
        "__wd_mult__": "0.0", 
        "eps": "1e-05", 
        "momentum": "0.9"
      }, 
      "inputs": []
    }, 
    {
      "op": "null", 
      "name": "bn_6_moving_var", 
      "attrs": {
        "__init__": "[\"one\", {}]", 
        "__wd_mult__": "0.0", 
        "eps": "1e-05", 
        "momentum": "0.9"
      }, 
      "inputs": []
    }, 
    {
      "op": "BatchNorm", 
      "name": "bn_6", 
      "attrs": {
        "__wd_mult__": "0.0", 
        "eps": "1e-05", 
        "momentum": "0.9"
      }, 
      "inputs": [[52, 0, 0], [53, 0, 0], [54, 0, 0], [55, 0, 1], [56, 0, 1]]
    }, 
    {
      "op": "LeakyReLU", 
      "name": "leaky_relu_6", 
      "attrs": {
        "act_type": "leaky", 
        "slope": "0.1"
      }, 
      "inputs": [[57, 0, 0]]
    }, 
    {
      "op": "elemwise_add", 
      "name": "_plus1", 
      "inputs": [[58, 0, 0], [42, 0, 0]]
    }, 
    {
      "op": "null", 
      "name": "conv_7_weight", 
      "attrs": {
        "kernel": "(1, 1)", 
        "no_bias": "True", 
        "num_filter": "64", 
        "pad": "(0, 0)", 
        "stride": "(1, 1)"
      }, 
      "inputs": []
    }, 
    {
      "op": "Convolution", 
      "name": "conv_7", 
      "attrs": {
        "kernel": "(1, 1)", 
        "no_bias": "True", 
        "num_filter": "64", 
        "pad": "(0, 0)", 
        "stride": "(1, 1)"
      }, 
      "inputs": [[59, 0, 0], [60, 0, 0]]
    }, 
    {
      "op": "null", 
      "name": "bn_7_gamma", 
      "attrs": {
        "__wd_mult__": "0.0", 
        "eps": "1e-05", 
        "momentum": "0.9"
      }, 
      "inputs": []
    }, 
    {
      "op": "null", 
      "name": "bn_7_beta", 
      "attrs": {
        "__wd_mult__": "0.0", 
        "eps": "1e-05", 
        "momentum": "0.9"
      }, 
      "inputs": []
    }, 
    {
      "op": "null", 
      "name": "bn_7_moving_mean", 
      "attrs": {
        "__init__": "[\"zero\", {}]", 
        "__wd_mult__": "0.0", 
        "eps": "1e-05", 
        "momentum": "0.9"
      }, 
      "inputs": []
    }, 
    {
      "op": "null", 
      "name": "bn_7_moving_var", 
      "attrs": {
        "__init__": "[\"one\", {}]", 
        "__wd_mult__": "0.0", 
        "eps": "1e-05", 
        "momentum": "0.9"
      }, 
      "inputs": []
    }, 
    {
      "op": "BatchNorm", 
      "name": "bn_7", 
      "attrs": {
        "__wd_mult__": "0.0", 
        "eps": "1e-05", 
        "momentum": "0.9"
      }, 
      "inputs": [[61, 0, 0], [62, 0, 0], [63, 0, 0], [64, 0, 1], [65, 0, 1]]
    }, 
    {
      "op": "LeakyReLU", 
      "name": "leaky_relu_7", 
      "attrs": {
        "act_type": "leaky", 
        "slope": "0.1"
      }, 
      "inputs": [[66, 0, 0]]
    }, 
    {
      "op": "null", 
      "name": "conv_8_weight", 
      "attrs": {
        "kernel": "(3, 3)", 
        "no_bias": "True", 
        "num_filter": "128", 
        "pad": "(1, 1)", 
        "stride": "(1, 1)"
      }, 
      "inputs": []
    }, 
    {
      "op": "Convolution", 
      "name": "conv_8", 
      "attrs": {
        "kernel": "(3, 3)", 
        "no_bias": "True", 
        "num_filter": "128", 
        "pad": "(1, 1)", 
        "stride": "(1, 1)"
      }, 
      "inputs": [[67, 0, 0], [68, 0, 0]]
    }, 
    {
      "op": "null", 
      "name": "bn_8_gamma", 
      "attrs": {
        "__wd_mult__": "0.0", 
        "eps": "1e-05", 
        "momentum": "0.9"
      }, 
      "inputs": []
    }, 
    {
      "op": "null", 
      "name": "bn_8_beta", 
      "attrs": {
        "__wd_mult__": "0.0", 
        "eps": "1e-05", 
        "momentum": "0.9"
      }, 
      "inputs": []
    }, 
    {
      "op": "null", 
      "name": "bn_8_moving_mean", 
      "attrs": {
        "__init__": "[\"zero\", {}]", 
        "__wd_mult__": "0.0", 
        "eps": "1e-05", 
        "momentum": "0.9"
      }, 
      "inputs": []
    }, 
    {
      "op": "null", 
      "name": "bn_8_moving_var", 
      "attrs": {
        "__init__": "[\"one\", {}]", 
        "__wd_mult__": "0.0", 
        "eps": "1e-05", 
        "momentum": "0.9"
      }, 
      "inputs": []
    }, 
    {
      "op": "BatchNorm", 
      "name": "bn_8", 
      "attrs": {
        "__wd_mult__": "0.0", 
        "eps": "1e-05", 
        "momentum": "0.9"
      }, 
      "inputs": [[69, 0, 0], [70, 0, 0], [71, 0, 0], [72, 0, 1], [73, 0, 1]]
    }, 
    {
      "op": "LeakyReLU", 
      "name": "leaky_relu_8", 
      "attrs": {
        "act_type": "leaky", 
        "slope": "0.1"
      }, 
      "inputs": [[74, 0, 0]]
    }, 
    {
      "op": "elemwise_add", 
      "name": "_plus2", 
      "inputs": [[75, 0, 0], [59, 0, 0]]
    }, 
    {
      "op": "null", 
      "name": "conv_9_weight", 
      "attrs": {
        "kernel": "(3, 3)", 
        "no_bias": "True", 
        "num_filter": "256", 
        "pad": "(1, 1)", 
        "stride": "(2, 2)"
      }, 
      "inputs": []
    }, 
    {
      "op": "Convolution", 
      "name": "conv_9", 
      "attrs": {
        "kernel": "(3, 3)", 
        "no_bias": "True", 
        "num_filter": "256", 
        "pad": "(1, 1)", 
        "stride": "(2, 2)"
      }, 
      "inputs": [[76, 0, 0], [77, 0, 0]]
    }, 
    {
      "op": "null", 
      "name": "bn_9_gamma", 
      "attrs": {
        "__wd_mult__": "0.0", 
        "eps": "1e-05", 
        "momentum": "0.9"
      }, 
      "inputs": []
    }, 
    {
      "op": "null", 
      "name": "bn_9_beta", 
      "attrs": {
        "__wd_mult__": "0.0", 
        "eps": "1e-05", 
        "momentum": "0.9"
      }, 
      "inputs": []
    }, 
    {
      "op": "null", 
      "name": "bn_9_moving_mean", 
      "attrs": {
        "__init__": "[\"zero\", {}]", 
        "__wd_mult__": "0.0", 
        "eps": "1e-05", 
        "momentum": "0.9"
      }, 
      "inputs": []
    }, 
    {
      "op": "null", 
      "name": "bn_9_moving_var", 
      "attrs": {
        "__init__": "[\"one\", {}]", 
        "__wd_mult__": "0.0", 
        "eps": "1e-05", 
        "momentum": "0.9"
      }, 
      "inputs": []
    }, 
    {
      "op": "BatchNorm", 
      "name": "bn_9", 
      "attrs": {
        "__wd_mult__": "0.0", 
        "eps": "1e-05", 
        "momentum": "0.9"
      }, 
      "inputs": [[78, 0, 0], [79, 0, 0], [80, 0, 0], [81, 0, 1], [82, 0, 1]]
    }, 
    {
      "op": "LeakyReLU", 
      "name": "leaky_relu_9", 
      "attrs": {
        "act_type": "leaky", 
        "slope": "0.1"
      }, 
      "inputs": [[83, 0, 0]]
    }, 
    {
      "op": "null", 
      "name": "conv_10_weight", 
      "attrs": {
        "kernel": "(1, 1)", 
        "no_bias": "True", 
        "num_filter": "128", 
        "pad": "(0, 0)", 
        "stride": "(1, 1)"
      }, 
      "inputs": []
    }, 
    {
      "op": "Convolution", 
      "name": "conv_10", 
      "attrs": {
        "kernel": "(1, 1)", 
        "no_bias": "True", 
        "num_filter": "128", 
        "pad": "(0, 0)", 
        "stride": "(1, 1)"
      }, 
      "inputs": [[84, 0, 0], [85, 0, 0]]
    }, 
    {
      "op": "null", 
      "name": "bn_10_gamma", 
      "attrs": {
        "__wd_mult__": "0.0", 
        "eps": "1e-05", 
        "momentum": "0.9"
      }, 
      "inputs": []
    }, 
    {
      "op": "null", 
      "name": "bn_10_beta", 
      "attrs": {
        "__wd_mult__": "0.0", 
        "eps": "1e-05", 
        "momentum": "0.9"
      }, 
      "inputs": []
    }, 
    {
      "op": "null", 
      "name": "bn_10_moving_mean", 
      "attrs": {
        "__init__": "[\"zero\", {}]", 
        "__wd_mult__": "0.0", 
        "eps": "1e-05", 
        "momentum": "0.9"
      }, 
      "inputs": []
    }, 
    {
      "op": "null", 
      "name": "bn_10_moving_var", 
      "attrs": {
        "__init__": "[\"one\", {}]", 
        "__wd_mult__": "0.0", 
        "eps": "1e-05", 
        "momentum": "0.9"
      }, 
      "inputs": []
    }, 
    {
      "op": "BatchNorm", 
      "name": "bn_10", 
      "attrs": {
        "__wd_mult__": "0.0", 
        "eps": "1e-05", 
        "momentum": "0.9"
      }, 
      "inputs": [[86, 0, 0], [87, 0, 0], [88, 0, 0], [89, 0, 1], [90, 0, 1]]
    }, 
    {
      "op": "LeakyReLU", 
      "name": "leaky_relu_10", 
      "attrs": {
        "act_type": "leaky", 
        "slope": "0.1"
      }, 
      "inputs": [[91, 0, 0]]
    }, 
    {
      "op": "null", 
      "name": "conv_11_weight", 
      "attrs": {
        "kernel": "(3, 3)", 
        "no_bias": "True", 
        "num_filter": "256", 
        "pad": "(1, 1)", 
        "stride": "(1, 1)"
      }, 
      "inputs": []
    }, 
    {
      "op": "Convolution", 
      "name": "conv_11", 
      "attrs": {
        "kernel": "(3, 3)", 
        "no_bias": "True", 
        "num_filter": "256", 
        "pad": "(1, 1)", 
        "stride": "(1, 1)"
      }, 
      "inputs": [[92, 0, 0], [93, 0, 0]]
    }, 
    {
      "op": "null", 
      "name": "bn_11_gamma", 
      "attrs": {
        "__wd_mult__": "0.0", 
        "eps": "1e-05", 
        "momentum": "0.9"
      }, 
      "inputs": []
    }, 
    {
      "op": "null", 
      "name": "bn_11_beta", 
      "attrs": {
        "__wd_mult__": "0.0", 
        "eps": "1e-05", 
        "momentum": "0.9"
      }, 
      "inputs": []
    }, 
    {
      "op": "null", 
      "name": "bn_11_moving_mean", 
      "attrs": {
        "__init__": "[\"zero\", {}]", 
        "__wd_mult__": "0.0", 
        "eps": "1e-05", 
        "momentum": "0.9"
      }, 
      "inputs": []
    }, 
    {
      "op": "null", 
      "name": "bn_11_moving_var", 
      "attrs": {
        "__init__": "[\"one\", {}]", 
        "__wd_mult__": "0.0", 
        "eps": "1e-05", 
        "momentum": "0.9"
      }, 
      "inputs": []
    }, 
    {
      "op": "BatchNorm", 
      "name": "bn_11", 
      "attrs": {
        "__wd_mult__": "0.0", 
        "eps": "1e-05", 
        "momentum": "0.9"
      }, 
      "inputs": [[94, 0, 0], [95, 0, 0], [96, 0, 0], [97, 0, 1], [98, 0, 1]]
    }, 
    {
      "op": "LeakyReLU", 
      "name": "leaky_relu_11", 
      "attrs": {
        "act_type": "leaky", 
        "slope": "0.1"
      }, 
      "inputs": [[99, 0, 0]]
    }, 
    {
      "op": "elemwise_add", 
      "name": "_plus3", 
      "inputs": [[100, 0, 0], [84, 0, 0]]
    }, 
    {
      "op": "null", 
      "name": "conv_12_weight", 
      "attrs": {
        "kernel": "(1, 1)", 
        "no_bias": "True", 
        "num_filter": "128", 
        "pad": "(0, 0)", 
        "stride": "(1, 1)"
      }, 
      "inputs": []
    }, 
    {
      "op": "Convolution", 
      "name": "conv_12", 
      "attrs": {
        "kernel": "(1, 1)", 
        "no_bias": "True", 
        "num_filter": "128", 
        "pad": "(0, 0)", 
        "stride": "(1, 1)"
      }, 
      "inputs": [[101, 0, 0], [102, 0, 0]]
    }, 
    {
      "op": "null", 
      "name": "bn_12_gamma", 
      "attrs": {
        "__wd_mult__": "0.0", 
        "eps": "1e-05", 
        "momentum": "0.9"
      }, 
      "inputs": []
    }, 
    {
      "op": "null", 
      "name": "bn_12_beta", 
      "attrs": {
        "__wd_mult__": "0.0", 
        "eps": "1e-05", 
        "momentum": "0.9"
      }, 
      "inputs": []
    }, 
    {
      "op": "null", 
      "name": "bn_12_moving_mean", 
      "attrs": {
        "__init__": "[\"zero\", {}]", 
        "__wd_mult__": "0.0", 
        "eps": "1e-05", 
        "momentum": "0.9"
      }, 
      "inputs": []
    }, 
    {
      "op": "null", 
      "name": "bn_12_moving_var", 
      "attrs": {
        "__init__": "[\"one\", {}]", 
        "__wd_mult__": "0.0", 
        "eps": "1e-05", 
        "momentum": "0.9"
      }, 
      "inputs": []
    }, 
    {
      "op": "BatchNorm", 
      "name": "bn_12", 
      "attrs": {
        "__wd_mult__": "0.0", 
        "eps": "1e-05", 
        "momentum": "0.9"
      }, 
      "inputs": [[103, 0, 0], [104, 0, 0], [105, 0, 0], [106, 0, 1], [107, 0, 1]]
    }, 
    {
      "op": "LeakyReLU", 
      "name": "leaky_relu_12", 
      "attrs": {
        "act_type": "leaky", 
        "slope": "0.1"
      }, 
      "inputs": [[108, 0, 0]]
    }, 
    {
      "op": "null", 
      "name": "conv_13_weight", 
      "attrs": {
        "kernel": "(3, 3)", 
        "no_bias": "True", 
        "num_filter": "256", 
        "pad": "(1, 1)", 
        "stride": "(1, 1)"
      }, 
      "inputs": []
    }, 
    {
      "op": "Convolution", 
      "name": "conv_13", 
      "attrs": {
        "kernel": "(3, 3)", 
        "no_bias": "True", 
        "num_filter": "256", 
        "pad": "(1, 1)", 
        "stride": "(1, 1)"
      }, 
      "inputs": [[109, 0, 0], [110, 0, 0]]
    }, 
    {
      "op": "null", 
      "name": "bn_13_gamma", 
      "attrs": {
        "__wd_mult__": "0.0", 
        "eps": "1e-05", 
        "momentum": "0.9"
      }, 
      "inputs": []
    }, 
    {
      "op": "null", 
      "name": "bn_13_beta", 
      "attrs": {
        "__wd_mult__": "0.0", 
        "eps": "1e-05", 
        "momentum": "0.9"
      }, 
      "inputs": []
    }, 
    {
      "op": "null", 
      "name": "bn_13_moving_mean", 
      "attrs": {
        "__init__": "[\"zero\", {}]", 
        "__wd_mult__": "0.0", 
        "eps": "1e-05", 
        "momentum": "0.9"
      }, 
      "inputs": []
    }, 
    {
      "op": "null", 
      "name": "bn_13_moving_var", 
      "attrs": {
        "__init__": "[\"one\", {}]", 
        "__wd_mult__": "0.0", 
        "eps": "1e-05", 
        "momentum": "0.9"
      }, 
      "inputs": []
    }, 
    {
      "op": "BatchNorm", 
      "name": "bn_13", 
      "attrs": {
        "__wd_mult__": "0.0", 
        "eps": "1e-05", 
        "momentum": "0.9"
      }, 
      "inputs": [[111, 0, 0], [112, 0, 0], [113, 0, 0], [114, 0, 1], [115, 0, 1]]
    }, 
    {
      "op": "LeakyReLU", 
      "name": "leaky_relu_13", 
      "attrs": {
        "act_type": "leaky", 
        "slope": "0.1"
      }, 
      "inputs": [[116, 0, 0]]
    }, 
    {
      "op": "elemwise_add", 
      "name": "_plus4", 
      "inputs": [[117, 0, 0], [101, 0, 0]]
    }, 
    {
      "op": "null", 
      "name": "conv_14_weight", 
      "attrs": {
        "kernel": "(1, 1)", 
        "no_bias": "True", 
        "num_filter": "128", 
        "pad": "(0, 0)", 
        "stride": "(1, 1)"
      }, 
      "inputs": []
    }, 
    {
      "op": "Convolution", 
      "name": "conv_14", 
      "attrs": {
        "kernel": "(1, 1)", 
        "no_bias": "True", 
        "num_filter": "128", 
        "pad": "(0, 0)", 
        "stride": "(1, 1)"
      }, 
      "inputs": [[118, 0, 0], [119, 0, 0]]
    }, 
    {
      "op": "null", 
      "name": "bn_14_gamma", 
      "attrs": {
        "__wd_mult__": "0.0", 
        "eps": "1e-05", 
        "momentum": "0.9"
      }, 
      "inputs": []
    }, 
    {
      "op": "null", 
      "name": "bn_14_beta", 
      "attrs": {
        "__wd_mult__": "0.0", 
        "eps": "1e-05", 
        "momentum": "0.9"
      }, 
      "inputs": []
    }, 
    {
      "op": "null", 
      "name": "bn_14_moving_mean", 
      "attrs": {
        "__init__": "[\"zero\", {}]", 
        "__wd_mult__": "0.0", 
        "eps": "1e-05", 
        "momentum": "0.9"
      }, 
      "inputs": []
    }, 
    {
      "op": "null", 
      "name": "bn_14_moving_var", 
      "attrs": {
        "__init__": "[\"one\", {}]", 
        "__wd_mult__": "0.0", 
        "eps": "1e-05", 
        "momentum": "0.9"
      }, 
      "inputs": []
    }, 
    {
      "op": "BatchNorm", 
      "name": "bn_14", 
      "attrs": {
        "__wd_mult__": "0.0", 
        "eps": "1e-05", 
        "momentum": "0.9"
      }, 
      "inputs": [[120, 0, 0], [121, 0, 0], [122, 0, 0], [123, 0, 1], [124, 0, 1]]
    }, 
    {
      "op": "LeakyReLU", 
      "name": "leaky_relu_14", 
      "attrs": {
        "act_type": "leaky", 
        "slope": "0.1"
      }, 
      "inputs": [[125, 0, 0]]
    }, 
    {
      "op": "null", 
      "name": "conv_15_weight", 
      "attrs": {
        "kernel": "(3, 3)", 
        "no_bias": "True", 
        "num_filter": "256", 
        "pad": "(1, 1)", 
        "stride": "(1, 1)"
      }, 
      "inputs": []
    }, 
    {
      "op": "Convolution", 
      "name": "conv_15", 
      "attrs": {
        "kernel": "(3, 3)", 
        "no_bias": "True", 
        "num_filter": "256", 
        "pad": "(1, 1)", 
        "stride": "(1, 1)"
      }, 
      "inputs": [[126, 0, 0], [127, 0, 0]]
    }, 
    {
      "op": "null", 
      "name": "bn_15_gamma", 
      "attrs": {
        "__wd_mult__": "0.0", 
        "eps": "1e-05", 
        "momentum": "0.9"
      }, 
      "inputs": []
    }, 
    {
      "op": "null", 
      "name": "bn_15_beta", 
      "attrs": {
        "__wd_mult__": "0.0", 
        "eps": "1e-05", 
        "momentum": "0.9"
      }, 
      "inputs": []
    }, 
    {
      "op": "null", 
      "name": "bn_15_moving_mean", 
      "attrs": {
        "__init__": "[\"zero\", {}]", 
        "__wd_mult__": "0.0", 
        "eps": "1e-05", 
        "momentum": "0.9"
      }, 
      "inputs": []
    }, 
    {
      "op": "null", 
      "name": "bn_15_moving_var", 
      "attrs": {
        "__init__": "[\"one\", {}]", 
        "__wd_mult__": "0.0", 
        "eps": "1e-05", 
        "momentum": "0.9"
      }, 
      "inputs": []
    }, 
    {
      "op": "BatchNorm", 
      "name": "bn_15", 
      "attrs": {
        "__wd_mult__": "0.0", 
        "eps": "1e-05", 
        "momentum": "0.9"
      }, 
      "inputs": [[128, 0, 0], [129, 0, 0], [130, 0, 0], [131, 0, 1], [132, 0, 1]]
    }, 
    {
      "op": "LeakyReLU", 
      "name": "leaky_relu_15", 
      "attrs": {
        "act_type": "leaky", 
        "slope": "0.1"
      }, 
      "inputs": [[133, 0, 0]]
    }, 
    {
      "op": "elemwise_add", 
      "name": "_plus5", 
      "inputs": [[134, 0, 0], [118, 0, 0]]
    }, 
    {
      "op": "null", 
      "name": "conv_16_weight", 
      "attrs": {
        "kernel": "(1, 1)", 
        "no_bias": "True", 
        "num_filter": "128", 
        "pad": "(0, 0)", 
        "stride": "(1, 1)"
      }, 
      "inputs": []
    }, 
    {
      "op": "Convolution", 
      "name": "conv_16", 
      "attrs": {
        "kernel": "(1, 1)", 
        "no_bias": "True", 
        "num_filter": "128", 
        "pad": "(0, 0)", 
        "stride": "(1, 1)"
      }, 
      "inputs": [[135, 0, 0], [136, 0, 0]]
    }, 
    {
      "op": "null", 
      "name": "bn_16_gamma", 
      "attrs": {
        "__wd_mult__": "0.0", 
        "eps": "1e-05", 
        "momentum": "0.9"
      }, 
      "inputs": []
    }, 
    {
      "op": "null", 
      "name": "bn_16_beta", 
      "attrs": {
        "__wd_mult__": "0.0", 
        "eps": "1e-05", 
        "momentum": "0.9"
      }, 
      "inputs": []
    }, 
    {
      "op": "null", 
      "name": "bn_16_moving_mean", 
      "attrs": {
        "__init__": "[\"zero\", {}]", 
        "__wd_mult__": "0.0", 
        "eps": "1e-05", 
        "momentum": "0.9"
      }, 
      "inputs": []
    }, 
    {
      "op": "null", 
      "name": "bn_16_moving_var", 
      "attrs": {
        "__init__": "[\"one\", {}]", 
        "__wd_mult__": "0.0", 
        "eps": "1e-05", 
        "momentum": "0.9"
      }, 
      "inputs": []
    }, 
    {
      "op": "BatchNorm", 
      "name": "bn_16", 
      "attrs": {
        "__wd_mult__": "0.0", 
        "eps": "1e-05", 
        "momentum": "0.9"
      }, 
      "inputs": [[137, 0, 0], [138, 0, 0], [139, 0, 0], [140, 0, 1], [141, 0, 1]]
    }, 
    {
      "op": "LeakyReLU", 
      "name": "leaky_relu_16", 
      "attrs": {
        "act_type": "leaky", 
        "slope": "0.1"
      }, 
      "inputs": [[142, 0, 0]]
    }, 
    {
      "op": "null", 
      "name": "conv_17_weight", 
      "attrs": {
        "kernel": "(3, 3)", 
        "no_bias": "True", 
        "num_filter": "256", 
        "pad": "(1, 1)", 
        "stride": "(1, 1)"
      }, 
      "inputs": []
    }, 
    {
      "op": "Convolution", 
      "name": "conv_17", 
      "attrs": {
        "kernel": "(3, 3)", 
        "no_bias": "True", 
        "num_filter": "256", 
        "pad": "(1, 1)", 
        "stride": "(1, 1)"
      }, 
      "inputs": [[143, 0, 0], [144, 0, 0]]
    }, 
    {
      "op": "null", 
      "name": "bn_17_gamma", 
      "attrs": {
        "__wd_mult__": "0.0", 
        "eps": "1e-05", 
        "momentum": "0.9"
      }, 
      "inputs": []
    }, 
    {
      "op": "null", 
      "name": "bn_17_beta", 
      "attrs": {
        "__wd_mult__": "0.0", 
        "eps": "1e-05", 
        "momentum": "0.9"
      }, 
      "inputs": []
    }, 
    {
      "op": "null", 
      "name": "bn_17_moving_mean", 
      "attrs": {
        "__init__": "[\"zero\", {}]", 
        "__wd_mult__": "0.0", 
        "eps": "1e-05", 
        "momentum": "0.9"
      }, 
      "inputs": []
    }, 
    {
      "op": "null", 
      "name": "bn_17_moving_var", 
      "attrs": {
        "__init__": "[\"one\", {}]", 
        "__wd_mult__": "0.0", 
        "eps": "1e-05", 
        "momentum": "0.9"
      }, 
      "inputs": []
    }, 
    {
      "op": "BatchNorm", 
      "name": "bn_17", 
      "attrs": {
        "__wd_mult__": "0.0", 
        "eps": "1e-05", 
        "momentum": "0.9"
      }, 
      "inputs": [[145, 0, 0], [146, 0, 0], [147, 0, 0], [148, 0, 1], [149, 0, 1]]
    }, 
    {
      "op": "LeakyReLU", 
      "name": "leaky_relu_17", 
      "attrs": {
        "act_type": "leaky", 
        "slope": "0.1"
      }, 
      "inputs": [[150, 0, 0]]
    }, 
    {
      "op": "elemwise_add", 
      "name": "_plus6", 
      "inputs": [[151, 0, 0], [135, 0, 0]]
    }, 
    {
      "op": "null", 
      "name": "conv_18_weight", 
      "attrs": {
        "kernel": "(1, 1)", 
        "no_bias": "True", 
        "num_filter": "128", 
        "pad": "(0, 0)", 
        "stride": "(1, 1)"
      }, 
      "inputs": []
    }, 
    {
      "op": "Convolution", 
      "name": "conv_18", 
      "attrs": {
        "kernel": "(1, 1)", 
        "no_bias": "True", 
        "num_filter": "128", 
        "pad": "(0, 0)", 
        "stride": "(1, 1)"
      }, 
      "inputs": [[152, 0, 0], [153, 0, 0]]
    }, 
    {
      "op": "null", 
      "name": "bn_18_gamma", 
      "attrs": {
        "__wd_mult__": "0.0", 
        "eps": "1e-05", 
        "momentum": "0.9"
      }, 
      "inputs": []
    }, 
    {
      "op": "null", 
      "name": "bn_18_beta", 
      "attrs": {
        "__wd_mult__": "0.0", 
        "eps": "1e-05", 
        "momentum": "0.9"
      }, 
      "inputs": []
    }, 
    {
      "op": "null", 
      "name": "bn_18_moving_mean", 
      "attrs": {
        "__init__": "[\"zero\", {}]", 
        "__wd_mult__": "0.0", 
        "eps": "1e-05", 
        "momentum": "0.9"
      }, 
      "inputs": []
    }, 
    {
      "op": "null", 
      "name": "bn_18_moving_var", 
      "attrs": {
        "__init__": "[\"one\", {}]", 
        "__wd_mult__": "0.0", 
        "eps": "1e-05", 
        "momentum": "0.9"
      }, 
      "inputs": []
    }, 
    {
      "op": "BatchNorm", 
      "name": "bn_18", 
      "attrs": {
        "__wd_mult__": "0.0", 
        "eps": "1e-05", 
        "momentum": "0.9"
      }, 
      "inputs": [[154, 0, 0], [155, 0, 0], [156, 0, 0], [157, 0, 1], [158, 0, 1]]
    }, 
    {
      "op": "LeakyReLU", 
      "name": "leaky_relu_18", 
      "attrs": {
        "act_type": "leaky", 
        "slope": "0.1"
      }, 
      "inputs": [[159, 0, 0]]
    }, 
    {
      "op": "null", 
      "name": "conv_19_weight", 
      "attrs": {
        "kernel": "(3, 3)", 
        "no_bias": "True", 
        "num_filter": "256", 
        "pad": "(1, 1)", 
        "stride": "(1, 1)"
      }, 
      "inputs": []
    }, 
    {
      "op": "Convolution", 
      "name": "conv_19", 
      "attrs": {
        "kernel": "(3, 3)", 
        "no_bias": "True", 
        "num_filter": "256", 
        "pad": "(1, 1)", 
        "stride": "(1, 1)"
      }, 
      "inputs": [[160, 0, 0], [161, 0, 0]]
    }, 
    {
      "op": "null", 
      "name": "bn_19_gamma", 
      "attrs": {
        "__wd_mult__": "0.0", 
        "eps": "1e-05", 
        "momentum": "0.9"
      }, 
      "inputs": []
    }, 
    {
      "op": "null", 
      "name": "bn_19_beta", 
      "attrs": {
        "__wd_mult__": "0.0", 
        "eps": "1e-05", 
        "momentum": "0.9"
      }, 
      "inputs": []
    }, 
    {
      "op": "null", 
      "name": "bn_19_moving_mean", 
      "attrs": {
        "__init__": "[\"zero\", {}]", 
        "__wd_mult__": "0.0", 
        "eps": "1e-05", 
        "momentum": "0.9"
      }, 
      "inputs": []
    }, 
    {
      "op": "null", 
      "name": "bn_19_moving_var", 
      "attrs": {
        "__init__": "[\"one\", {}]", 
        "__wd_mult__": "0.0", 
        "eps": "1e-05", 
        "momentum": "0.9"
      }, 
      "inputs": []
    }, 
    {
      "op": "BatchNorm", 
      "name": "bn_19", 
      "attrs": {
        "__wd_mult__": "0.0", 
        "eps": "1e-05", 
        "momentum": "0.9"
      }, 
      "inputs": [[162, 0, 0], [163, 0, 0], [164, 0, 0], [165, 0, 1], [166, 0, 1]]
    }, 
    {
      "op": "LeakyReLU", 
      "name": "leaky_relu_19", 
      "attrs": {
        "act_type": "leaky", 
        "slope": "0.1"
      }, 
      "inputs": [[167, 0, 0]]
    }, 
    {
      "op": "elemwise_add", 
      "name": "_plus7", 
      "inputs": [[168, 0, 0], [152, 0, 0]]
    }, 
    {
      "op": "null", 
      "name": "conv_20_weight", 
      "attrs": {
        "kernel": "(1, 1)", 
        "no_bias": "True", 
        "num_filter": "128", 
        "pad": "(0, 0)", 
        "stride": "(1, 1)"
      }, 
      "inputs": []
    }, 
    {
      "op": "Convolution", 
      "name": "conv_20", 
      "attrs": {
        "kernel": "(1, 1)", 
        "no_bias": "True", 
        "num_filter": "128", 
        "pad": "(0, 0)", 
        "stride": "(1, 1)"
      }, 
      "inputs": [[169, 0, 0], [170, 0, 0]]
    }, 
    {
      "op": "null", 
      "name": "bn_20_gamma", 
      "attrs": {
        "__wd_mult__": "0.0", 
        "eps": "1e-05", 
        "momentum": "0.9"
      }, 
      "inputs": []
    }, 
    {
      "op": "null", 
      "name": "bn_20_beta", 
      "attrs": {
        "__wd_mult__": "0.0", 
        "eps": "1e-05", 
        "momentum": "0.9"
      }, 
      "inputs": []
    }, 
    {
      "op": "null", 
      "name": "bn_20_moving_mean", 
      "attrs": {
        "__init__": "[\"zero\", {}]", 
        "__wd_mult__": "0.0", 
        "eps": "1e-05", 
        "momentum": "0.9"
      }, 
      "inputs": []
    }, 
    {
      "op": "null", 
      "name": "bn_20_moving_var", 
      "attrs": {
        "__init__": "[\"one\", {}]", 
        "__wd_mult__": "0.0", 
        "eps": "1e-05", 
        "momentum": "0.9"
      }, 
      "inputs": []
    }, 
    {
      "op": "BatchNorm", 
      "name": "bn_20", 
      "attrs": {
        "__wd_mult__": "0.0", 
        "eps": "1e-05", 
        "momentum": "0.9"
      }, 
      "inputs": [[171, 0, 0], [172, 0, 0], [173, 0, 0], [174, 0, 1], [175, 0, 1]]
    }, 
    {
      "op": "LeakyReLU", 
      "name": "leaky_relu_20", 
      "attrs": {
        "act_type": "leaky", 
        "slope": "0.1"
      }, 
      "inputs": [[176, 0, 0]]
    }, 
    {
      "op": "null", 
      "name": "conv_21_weight", 
      "attrs": {
        "kernel": "(3, 3)", 
        "no_bias": "True", 
        "num_filter": "256", 
        "pad": "(1, 1)", 
        "stride": "(1, 1)"
      }, 
      "inputs": []
    }, 
    {
      "op": "Convolution", 
      "name": "conv_21", 
      "attrs": {
        "kernel": "(3, 3)", 
        "no_bias": "True", 
        "num_filter": "256", 
        "pad": "(1, 1)", 
        "stride": "(1, 1)"
      }, 
      "inputs": [[177, 0, 0], [178, 0, 0]]
    }, 
    {
      "op": "null", 
      "name": "bn_21_gamma", 
      "attrs": {
        "__wd_mult__": "0.0", 
        "eps": "1e-05", 
        "momentum": "0.9"
      }, 
      "inputs": []
    }, 
    {
      "op": "null", 
      "name": "bn_21_beta", 
      "attrs": {
        "__wd_mult__": "0.0", 
        "eps": "1e-05", 
        "momentum": "0.9"
      }, 
      "inputs": []
    }, 
    {
      "op": "null", 
      "name": "bn_21_moving_mean", 
      "attrs": {
        "__init__": "[\"zero\", {}]", 
        "__wd_mult__": "0.0", 
        "eps": "1e-05", 
        "momentum": "0.9"
      }, 
      "inputs": []
    }, 
    {
      "op": "null", 
      "name": "bn_21_moving_var", 
      "attrs": {
        "__init__": "[\"one\", {}]", 
        "__wd_mult__": "0.0", 
        "eps": "1e-05", 
        "momentum": "0.9"
      }, 
      "inputs": []
    }, 
    {
      "op": "BatchNorm", 
      "name": "bn_21", 
      "attrs": {
        "__wd_mult__": "0.0", 
        "eps": "1e-05", 
        "momentum": "0.9"
      }, 
      "inputs": [[179, 0, 0], [180, 0, 0], [181, 0, 0], [182, 0, 1], [183, 0, 1]]
    }, 
    {
      "op": "LeakyReLU", 
      "name": "leaky_relu_21", 
      "attrs": {
        "act_type": "leaky", 
        "slope": "0.1"
      }, 
      "inputs": [[184, 0, 0]]
    }, 
    {
      "op": "elemwise_add", 
      "name": "_plus8", 
      "inputs": [[185, 0, 0], [169, 0, 0]]
    }, 
    {
      "op": "null", 
      "name": "conv_22_weight", 
      "attrs": {
        "kernel": "(1, 1)", 
        "no_bias": "True", 
        "num_filter": "128", 
        "pad": "(0, 0)", 
        "stride": "(1, 1)"
      }, 
      "inputs": []
    }, 
    {
      "op": "Convolution", 
      "name": "conv_22", 
      "attrs": {
        "kernel": "(1, 1)", 
        "no_bias": "True", 
        "num_filter": "128", 
        "pad": "(0, 0)", 
        "stride": "(1, 1)"
      }, 
      "inputs": [[186, 0, 0], [187, 0, 0]]
    }, 
    {
      "op": "null", 
      "name": "bn_22_gamma", 
      "attrs": {
        "__wd_mult__": "0.0", 
        "eps": "1e-05", 
        "momentum": "0.9"
      }, 
      "inputs": []
    }, 
    {
      "op": "null", 
      "name": "bn_22_beta", 
      "attrs": {
        "__wd_mult__": "0.0", 
        "eps": "1e-05", 
        "momentum": "0.9"
      }, 
      "inputs": []
    }, 
    {
      "op": "null", 
      "name": "bn_22_moving_mean", 
      "attrs": {
        "__init__": "[\"zero\", {}]", 
        "__wd_mult__": "0.0", 
        "eps": "1e-05", 
        "momentum": "0.9"
      }, 
      "inputs": []
    }, 
    {
      "op": "null", 
      "name": "bn_22_moving_var", 
      "attrs": {
        "__init__": "[\"one\", {}]", 
        "__wd_mult__": "0.0", 
        "eps": "1e-05", 
        "momentum": "0.9"
      }, 
      "inputs": []
    }, 
    {
      "op": "BatchNorm", 
      "name": "bn_22", 
      "attrs": {
        "__wd_mult__": "0.0", 
        "eps": "1e-05", 
        "momentum": "0.9"
      }, 
      "inputs": [[188, 0, 0], [189, 0, 0], [190, 0, 0], [191, 0, 1], [192, 0, 1]]
    }, 
    {
      "op": "LeakyReLU", 
      "name": "leaky_relu_22", 
      "attrs": {
        "act_type": "leaky", 
        "slope": "0.1"
      }, 
      "inputs": [[193, 0, 0]]
    }, 
    {
      "op": "null", 
      "name": "conv_23_weight", 
      "attrs": {
        "kernel": "(3, 3)", 
        "no_bias": "True", 
        "num_filter": "256", 
        "pad": "(1, 1)", 
        "stride": "(1, 1)"
      }, 
      "inputs": []
    }, 
    {
      "op": "Convolution", 
      "name": "conv_23", 
      "attrs": {
        "kernel": "(3, 3)", 
        "no_bias": "True", 
        "num_filter": "256", 
        "pad": "(1, 1)", 
        "stride": "(1, 1)"
      }, 
      "inputs": [[194, 0, 0], [195, 0, 0]]
    }, 
    {
      "op": "null", 
      "name": "bn_23_gamma", 
      "attrs": {
        "__wd_mult__": "0.0", 
        "eps": "1e-05", 
        "momentum": "0.9"
      }, 
      "inputs": []
    }, 
    {
      "op": "null", 
      "name": "bn_23_beta", 
      "attrs": {
        "__wd_mult__": "0.0", 
        "eps": "1e-05", 
        "momentum": "0.9"
      }, 
      "inputs": []
    }, 
    {
      "op": "null", 
      "name": "bn_23_moving_mean", 
      "attrs": {
        "__init__": "[\"zero\", {}]", 
        "__wd_mult__": "0.0", 
        "eps": "1e-05", 
        "momentum": "0.9"
      }, 
      "inputs": []
    }, 
    {
      "op": "null", 
      "name": "bn_23_moving_var", 
      "attrs": {
        "__init__": "[\"one\", {}]", 
        "__wd_mult__": "0.0", 
        "eps": "1e-05", 
        "momentum": "0.9"
      }, 
      "inputs": []
    }, 
    {
      "op": "BatchNorm", 
      "name": "bn_23", 
      "attrs": {
        "__wd_mult__": "0.0", 
        "eps": "1e-05", 
        "momentum": "0.9"
      }, 
      "inputs": [[196, 0, 0], [197, 0, 0], [198, 0, 0], [199, 0, 1], [200, 0, 1]]
    }, 
    {
      "op": "LeakyReLU", 
      "name": "leaky_relu_23", 
      "attrs": {
        "act_type": "leaky", 
        "slope": "0.1"
      }, 
      "inputs": [[201, 0, 0]]
    }, 
    {
      "op": "elemwise_add", 
      "name": "_plus9", 
      "inputs": [[202, 0, 0], [186, 0, 0]]
    }, 
    {
      "op": "null", 
      "name": "conv_24_weight", 
      "attrs": {
        "kernel": "(1, 1)", 
        "no_bias": "True", 
        "num_filter": "128", 
        "pad": "(0, 0)", 
        "stride": "(1, 1)"
      }, 
      "inputs": []
    }, 
    {
      "op": "Convolution", 
      "name": "conv_24", 
      "attrs": {
        "kernel": "(1, 1)", 
        "no_bias": "True", 
        "num_filter": "128", 
        "pad": "(0, 0)", 
        "stride": "(1, 1)"
      }, 
      "inputs": [[203, 0, 0], [204, 0, 0]]
    }, 
    {
      "op": "null", 
      "name": "bn_24_gamma", 
      "attrs": {
        "__wd_mult__": "0.0", 
        "eps": "1e-05", 
        "momentum": "0.9"
      }, 
      "inputs": []
    }, 
    {
      "op": "null", 
      "name": "bn_24_beta", 
      "attrs": {
        "__wd_mult__": "0.0", 
        "eps": "1e-05", 
        "momentum": "0.9"
      }, 
      "inputs": []
    }, 
    {
      "op": "null", 
      "name": "bn_24_moving_mean", 
      "attrs": {
        "__init__": "[\"zero\", {}]", 
        "__wd_mult__": "0.0", 
        "eps": "1e-05", 
        "momentum": "0.9"
      }, 
      "inputs": []
    }, 
    {
      "op": "null", 
      "name": "bn_24_moving_var", 
      "attrs": {
        "__init__": "[\"one\", {}]", 
        "__wd_mult__": "0.0", 
        "eps": "1e-05", 
        "momentum": "0.9"
      }, 
      "inputs": []
    }, 
    {
      "op": "BatchNorm", 
      "name": "bn_24", 
      "attrs": {
        "__wd_mult__": "0.0", 
        "eps": "1e-05", 
        "momentum": "0.9"
      }, 
      "inputs": [[205, 0, 0], [206, 0, 0], [207, 0, 0], [208, 0, 1], [209, 0, 1]]
    }, 
    {
      "op": "LeakyReLU", 
      "name": "leaky_relu_24", 
      "attrs": {
        "act_type": "leaky", 
        "slope": "0.1"
      }, 
      "inputs": [[210, 0, 0]]
    }, 
    {
      "op": "null", 
      "name": "conv_25_weight", 
      "attrs": {
        "kernel": "(3, 3)", 
        "no_bias": "True", 
        "num_filter": "256", 
        "pad": "(1, 1)", 
        "stride": "(1, 1)"
      }, 
      "inputs": []
    }, 
    {
      "op": "Convolution", 
      "name": "conv_25", 
      "attrs": {
        "kernel": "(3, 3)", 
        "no_bias": "True", 
        "num_filter": "256", 
        "pad": "(1, 1)", 
        "stride": "(1, 1)"
      }, 
      "inputs": [[211, 0, 0], [212, 0, 0]]
    }, 
    {
      "op": "null", 
      "name": "bn_25_gamma", 
      "attrs": {
        "__wd_mult__": "0.0", 
        "eps": "1e-05", 
        "momentum": "0.9"
      }, 
      "inputs": []
    }, 
    {
      "op": "null", 
      "name": "bn_25_beta", 
      "attrs": {
        "__wd_mult__": "0.0", 
        "eps": "1e-05", 
        "momentum": "0.9"
      }, 
      "inputs": []
    }, 
    {
      "op": "null", 
      "name": "bn_25_moving_mean", 
      "attrs": {
        "__init__": "[\"zero\", {}]", 
        "__wd_mult__": "0.0", 
        "eps": "1e-05", 
        "momentum": "0.9"
      }, 
      "inputs": []
    }, 
    {
      "op": "null", 
      "name": "bn_25_moving_var", 
      "attrs": {
        "__init__": "[\"one\", {}]", 
        "__wd_mult__": "0.0", 
        "eps": "1e-05", 
        "momentum": "0.9"
      }, 
      "inputs": []
    }, 
    {
      "op": "BatchNorm", 
      "name": "bn_25", 
      "attrs": {
        "__wd_mult__": "0.0", 
        "eps": "1e-05", 
        "momentum": "0.9"
      }, 
      "inputs": [[213, 0, 0], [214, 0, 0], [215, 0, 0], [216, 0, 1], [217, 0, 1]]
    }, 
    {
      "op": "LeakyReLU", 
      "name": "leaky_relu_25", 
      "attrs": {
        "act_type": "leaky", 
        "slope": "0.1"
      }, 
      "inputs": [[218, 0, 0]]
    }, 
    {
      "op": "elemwise_add", 
      "name": "_plus10", 
      "inputs": [[219, 0, 0], [203, 0, 0]]
    }, 
    {
      "op": "null", 
      "name": "conv_26_weight", 
      "attrs": {
        "kernel": "(3, 3)", 
        "no_bias": "True", 
        "num_filter": "512", 
        "pad": "(1, 1)", 
        "stride": "(2, 2)"
      }, 
      "inputs": []
    }, 
    {
      "op": "Convolution", 
      "name": "conv_26", 
      "attrs": {
        "kernel": "(3, 3)", 
        "no_bias": "True", 
        "num_filter": "512", 
        "pad": "(1, 1)", 
        "stride": "(2, 2)"
      }, 
      "inputs": [[220, 0, 0], [221, 0, 0]]
    }, 
    {
      "op": "null", 
      "name": "bn_26_gamma", 
      "attrs": {
        "__wd_mult__": "0.0", 
        "eps": "1e-05", 
        "momentum": "0.9"
      }, 
      "inputs": []
    }, 
    {
      "op": "null", 
      "name": "bn_26_beta", 
      "attrs": {
        "__wd_mult__": "0.0", 
        "eps": "1e-05", 
        "momentum": "0.9"
      }, 
      "inputs": []
    }, 
    {
      "op": "null", 
      "name": "bn_26_moving_mean", 
      "attrs": {
        "__init__": "[\"zero\", {}]", 
        "__wd_mult__": "0.0", 
        "eps": "1e-05", 
        "momentum": "0.9"
      }, 
      "inputs": []
    }, 
    {
      "op": "null", 
      "name": "bn_26_moving_var", 
      "attrs": {
        "__init__": "[\"one\", {}]", 
        "__wd_mult__": "0.0", 
        "eps": "1e-05", 
        "momentum": "0.9"
      }, 
      "inputs": []
    }, 
    {
      "op": "BatchNorm", 
      "name": "bn_26", 
      "attrs": {
        "__wd_mult__": "0.0", 
        "eps": "1e-05", 
        "momentum": "0.9"
      }, 
      "inputs": [[222, 0, 0], [223, 0, 0], [224, 0, 0], [225, 0, 1], [226, 0, 1]]
    }, 
    {
      "op": "LeakyReLU", 
      "name": "leaky_relu_26", 
      "attrs": {
        "act_type": "leaky", 
        "slope": "0.1"
      }, 
      "inputs": [[227, 0, 0]]
    }, 
    {
      "op": "null", 
      "name": "conv_27_weight", 
      "attrs": {
        "kernel": "(1, 1)", 
        "no_bias": "True", 
        "num_filter": "256", 
        "pad": "(0, 0)", 
        "stride": "(1, 1)"
      }, 
      "inputs": []
    }, 
    {
      "op": "Convolution", 
      "name": "conv_27", 
      "attrs": {
        "kernel": "(1, 1)", 
        "no_bias": "True", 
        "num_filter": "256", 
        "pad": "(0, 0)", 
        "stride": "(1, 1)"
      }, 
      "inputs": [[228, 0, 0], [229, 0, 0]]
    }, 
    {
      "op": "null", 
      "name": "bn_27_gamma", 
      "attrs": {
        "__wd_mult__": "0.0", 
        "eps": "1e-05", 
        "momentum": "0.9"
      }, 
      "inputs": []
    }, 
    {
      "op": "null", 
      "name": "bn_27_beta", 
      "attrs": {
        "__wd_mult__": "0.0", 
        "eps": "1e-05", 
        "momentum": "0.9"
      }, 
      "inputs": []
    }, 
    {
      "op": "null", 
      "name": "bn_27_moving_mean", 
      "attrs": {
        "__init__": "[\"zero\", {}]", 
        "__wd_mult__": "0.0", 
        "eps": "1e-05", 
        "momentum": "0.9"
      }, 
      "inputs": []
    }, 
    {
      "op": "null", 
      "name": "bn_27_moving_var", 
      "attrs": {
        "__init__": "[\"one\", {}]", 
        "__wd_mult__": "0.0", 
        "eps": "1e-05", 
        "momentum": "0.9"
      }, 
      "inputs": []
    }, 
    {
      "op": "BatchNorm", 
      "name": "bn_27", 
      "attrs": {
        "__wd_mult__": "0.0", 
        "eps": "1e-05", 
        "momentum": "0.9"
      }, 
      "inputs": [[230, 0, 0], [231, 0, 0], [232, 0, 0], [233, 0, 1], [234, 0, 1]]
    }, 
    {
      "op": "LeakyReLU", 
      "name": "leaky_relu_27", 
      "attrs": {
        "act_type": "leaky", 
        "slope": "0.1"
      }, 
      "inputs": [[235, 0, 0]]
    }, 
    {
      "op": "null", 
      "name": "conv_28_weight", 
      "attrs": {
        "kernel": "(3, 3)", 
        "no_bias": "True", 
        "num_filter": "512", 
        "pad": "(1, 1)", 
        "stride": "(1, 1)"
      }, 
      "inputs": []
    }, 
    {
      "op": "Convolution", 
      "name": "conv_28", 
      "attrs": {
        "kernel": "(3, 3)", 
        "no_bias": "True", 
        "num_filter": "512", 
        "pad": "(1, 1)", 
        "stride": "(1, 1)"
      }, 
      "inputs": [[236, 0, 0], [237, 0, 0]]
    }, 
    {
      "op": "null", 
      "name": "bn_28_gamma", 
      "attrs": {
        "__wd_mult__": "0.0", 
        "eps": "1e-05", 
        "momentum": "0.9"
      }, 
      "inputs": []
    }, 
    {
      "op": "null", 
      "name": "bn_28_beta", 
      "attrs": {
        "__wd_mult__": "0.0", 
        "eps": "1e-05", 
        "momentum": "0.9"
      }, 
      "inputs": []
    }, 
    {
      "op": "null", 
      "name": "bn_28_moving_mean", 
      "attrs": {
        "__init__": "[\"zero\", {}]", 
        "__wd_mult__": "0.0", 
        "eps": "1e-05", 
        "momentum": "0.9"
      }, 
      "inputs": []
    }, 
    {
      "op": "null", 
      "name": "bn_28_moving_var", 
      "attrs": {
        "__init__": "[\"one\", {}]", 
        "__wd_mult__": "0.0", 
        "eps": "1e-05", 
        "momentum": "0.9"
      }, 
      "inputs": []
    }, 
    {
      "op": "BatchNorm", 
      "name": "bn_28", 
      "attrs": {
        "__wd_mult__": "0.0", 
        "eps": "1e-05", 
        "momentum": "0.9"
      }, 
      "inputs": [[238, 0, 0], [239, 0, 0], [240, 0, 0], [241, 0, 1], [242, 0, 1]]
    }, 
    {
      "op": "LeakyReLU", 
      "name": "leaky_relu_28", 
      "attrs": {
        "act_type": "leaky", 
        "slope": "0.1"
      }, 
      "inputs": [[243, 0, 0]]
    }, 
    {
      "op": "elemwise_add", 
      "name": "_plus11", 
      "inputs": [[244, 0, 0], [228, 0, 0]]
    }, 
    {
      "op": "null", 
      "name": "conv_29_weight", 
      "attrs": {
        "kernel": "(1, 1)", 
        "no_bias": "True", 
        "num_filter": "256", 
        "pad": "(0, 0)", 
        "stride": "(1, 1)"
      }, 
      "inputs": []
    }, 
    {
      "op": "Convolution", 
      "name": "conv_29", 
      "attrs": {
        "kernel": "(1, 1)", 
        "no_bias": "True", 
        "num_filter": "256", 
        "pad": "(0, 0)", 
        "stride": "(1, 1)"
      }, 
      "inputs": [[245, 0, 0], [246, 0, 0]]
    }, 
    {
      "op": "null", 
      "name": "bn_29_gamma", 
      "attrs": {
        "__wd_mult__": "0.0", 
        "eps": "1e-05", 
        "momentum": "0.9"
      }, 
      "inputs": []
    }, 
    {
      "op": "null", 
      "name": "bn_29_beta", 
      "attrs": {
        "__wd_mult__": "0.0", 
        "eps": "1e-05", 
        "momentum": "0.9"
      }, 
      "inputs": []
    }, 
    {
      "op": "null", 
      "name": "bn_29_moving_mean", 
      "attrs": {
        "__init__": "[\"zero\", {}]", 
        "__wd_mult__": "0.0", 
        "eps": "1e-05", 
        "momentum": "0.9"
      }, 
      "inputs": []
    }, 
    {
      "op": "null", 
      "name": "bn_29_moving_var", 
      "attrs": {
        "__init__": "[\"one\", {}]", 
        "__wd_mult__": "0.0", 
        "eps": "1e-05", 
        "momentum": "0.9"
      }, 
      "inputs": []
    }, 
    {
      "op": "BatchNorm", 
      "name": "bn_29", 
      "attrs": {
        "__wd_mult__": "0.0", 
        "eps": "1e-05", 
        "momentum": "0.9"
      }, 
      "inputs": [[247, 0, 0], [248, 0, 0], [249, 0, 0], [250, 0, 1], [251, 0, 1]]
    }, 
    {
      "op": "LeakyReLU", 
      "name": "leaky_relu_29", 
      "attrs": {
        "act_type": "leaky", 
        "slope": "0.1"
      }, 
      "inputs": [[252, 0, 0]]
    }, 
    {
      "op": "null", 
      "name": "conv_30_weight", 
      "attrs": {
        "kernel": "(3, 3)", 
        "no_bias": "True", 
        "num_filter": "512", 
        "pad": "(1, 1)", 
        "stride": "(1, 1)"
      }, 
      "inputs": []
    }, 
    {
      "op": "Convolution", 
      "name": "conv_30", 
      "attrs": {
        "kernel": "(3, 3)", 
        "no_bias": "True", 
        "num_filter": "512", 
        "pad": "(1, 1)", 
        "stride": "(1, 1)"
      }, 
      "inputs": [[253, 0, 0], [254, 0, 0]]
    }, 
    {
      "op": "null", 
      "name": "bn_30_gamma", 
      "attrs": {
        "__wd_mult__": "0.0", 
        "eps": "1e-05", 
        "momentum": "0.9"
      }, 
      "inputs": []
    }, 
    {
      "op": "null", 
      "name": "bn_30_beta", 
      "attrs": {
        "__wd_mult__": "0.0", 
        "eps": "1e-05", 
        "momentum": "0.9"
      }, 
      "inputs": []
    }, 
    {
      "op": "null", 
      "name": "bn_30_moving_mean", 
      "attrs": {
        "__init__": "[\"zero\", {}]", 
        "__wd_mult__": "0.0", 
        "eps": "1e-05", 
        "momentum": "0.9"
      }, 
      "inputs": []
    }, 
    {
      "op": "null", 
      "name": "bn_30_moving_var", 
      "attrs": {
        "__init__": "[\"one\", {}]", 
        "__wd_mult__": "0.0", 
        "eps": "1e-05", 
        "momentum": "0.9"
      }, 
      "inputs": []
    }, 
    {
      "op": "BatchNorm", 
      "name": "bn_30", 
      "attrs": {
        "__wd_mult__": "0.0", 
        "eps": "1e-05", 
        "momentum": "0.9"
      }, 
      "inputs": [[255, 0, 0], [256, 0, 0], [257, 0, 0], [258, 0, 1], [259, 0, 1]]
    }, 
    {
      "op": "LeakyReLU", 
      "name": "leaky_relu_30", 
      "attrs": {
        "act_type": "leaky", 
        "slope": "0.1"
      }, 
      "inputs": [[260, 0, 0]]
    }, 
    {
      "op": "elemwise_add", 
      "name": "_plus12", 
      "inputs": [[261, 0, 0], [245, 0, 0]]
    }, 
    {
      "op": "null", 
      "name": "conv_31_weight", 
      "attrs": {
        "kernel": "(1, 1)", 
        "no_bias": "True", 
        "num_filter": "256", 
        "pad": "(0, 0)", 
        "stride": "(1, 1)"
      }, 
      "inputs": []
    }, 
    {
      "op": "Convolution", 
      "name": "conv_31", 
      "attrs": {
        "kernel": "(1, 1)", 
        "no_bias": "True", 
        "num_filter": "256", 
        "pad": "(0, 0)", 
        "stride": "(1, 1)"
      }, 
      "inputs": [[262, 0, 0], [263, 0, 0]]
    }, 
    {
      "op": "null", 
      "name": "bn_31_gamma", 
      "attrs": {
        "__wd_mult__": "0.0", 
        "eps": "1e-05", 
        "momentum": "0.9"
      }, 
      "inputs": []
    }, 
    {
      "op": "null", 
      "name": "bn_31_beta", 
      "attrs": {
        "__wd_mult__": "0.0", 
        "eps": "1e-05", 
        "momentum": "0.9"
      }, 
      "inputs": []
    }, 
    {
      "op": "null", 
      "name": "bn_31_moving_mean", 
      "attrs": {
        "__init__": "[\"zero\", {}]", 
        "__wd_mult__": "0.0", 
        "eps": "1e-05", 
        "momentum": "0.9"
      }, 
      "inputs": []
    }, 
    {
      "op": "null", 
      "name": "bn_31_moving_var", 
      "attrs": {
        "__init__": "[\"one\", {}]", 
        "__wd_mult__": "0.0", 
        "eps": "1e-05", 
        "momentum": "0.9"
      }, 
      "inputs": []
    }, 
    {
      "op": "BatchNorm", 
      "name": "bn_31", 
      "attrs": {
        "__wd_mult__": "0.0", 
        "eps": "1e-05", 
        "momentum": "0.9"
      }, 
      "inputs": [[264, 0, 0], [265, 0, 0], [266, 0, 0], [267, 0, 1], [268, 0, 1]]
    }, 
    {
      "op": "LeakyReLU", 
      "name": "leaky_relu_31", 
      "attrs": {
        "act_type": "leaky", 
        "slope": "0.1"
      }, 
      "inputs": [[269, 0, 0]]
    }, 
    {
      "op": "null", 
      "name": "conv_32_weight", 
      "attrs": {
        "kernel": "(3, 3)", 
        "no_bias": "True", 
        "num_filter": "512", 
        "pad": "(1, 1)", 
        "stride": "(1, 1)"
      }, 
      "inputs": []
    }, 
    {
      "op": "Convolution", 
      "name": "conv_32", 
      "attrs": {
        "kernel": "(3, 3)", 
        "no_bias": "True", 
        "num_filter": "512", 
        "pad": "(1, 1)", 
        "stride": "(1, 1)"
      }, 
      "inputs": [[270, 0, 0], [271, 0, 0]]
    }, 
    {
      "op": "null", 
      "name": "bn_32_gamma", 
      "attrs": {
        "__wd_mult__": "0.0", 
        "eps": "1e-05", 
        "momentum": "0.9"
      }, 
      "inputs": []
    }, 
    {
      "op": "null", 
      "name": "bn_32_beta", 
      "attrs": {
        "__wd_mult__": "0.0", 
        "eps": "1e-05", 
        "momentum": "0.9"
      }, 
      "inputs": []
    }, 
    {
      "op": "null", 
      "name": "bn_32_moving_mean", 
      "attrs": {
        "__init__": "[\"zero\", {}]", 
        "__wd_mult__": "0.0", 
        "eps": "1e-05", 
        "momentum": "0.9"
      }, 
      "inputs": []
    }, 
    {
      "op": "null", 
      "name": "bn_32_moving_var", 
      "attrs": {
        "__init__": "[\"one\", {}]", 
        "__wd_mult__": "0.0", 
        "eps": "1e-05", 
        "momentum": "0.9"
      }, 
      "inputs": []
    }, 
    {
      "op": "BatchNorm", 
      "name": "bn_32", 
      "attrs": {
        "__wd_mult__": "0.0", 
        "eps": "1e-05", 
        "momentum": "0.9"
      }, 
      "inputs": [[272, 0, 0], [273, 0, 0], [274, 0, 0], [275, 0, 1], [276, 0, 1]]
    }, 
    {
      "op": "LeakyReLU", 
      "name": "leaky_relu_32", 
      "attrs": {
        "act_type": "leaky", 
        "slope": "0.1"
      }, 
      "inputs": [[277, 0, 0]]
    }, 
    {
      "op": "elemwise_add", 
      "name": "_plus13", 
      "inputs": [[278, 0, 0], [262, 0, 0]]
    }, 
    {
      "op": "null", 
      "name": "conv_33_weight", 
      "attrs": {
        "kernel": "(1, 1)", 
        "no_bias": "True", 
        "num_filter": "256", 
        "pad": "(0, 0)", 
        "stride": "(1, 1)"
      }, 
      "inputs": []
    }, 
    {
      "op": "Convolution", 
      "name": "conv_33", 
      "attrs": {
        "kernel": "(1, 1)", 
        "no_bias": "True", 
        "num_filter": "256", 
        "pad": "(0, 0)", 
        "stride": "(1, 1)"
      }, 
      "inputs": [[279, 0, 0], [280, 0, 0]]
    }, 
    {
      "op": "null", 
      "name": "bn_33_gamma", 
      "attrs": {
        "__wd_mult__": "0.0", 
        "eps": "1e-05", 
        "momentum": "0.9"
      }, 
      "inputs": []
    }, 
    {
      "op": "null", 
      "name": "bn_33_beta", 
      "attrs": {
        "__wd_mult__": "0.0", 
        "eps": "1e-05", 
        "momentum": "0.9"
      }, 
      "inputs": []
    }, 
    {
      "op": "null", 
      "name": "bn_33_moving_mean", 
      "attrs": {
        "__init__": "[\"zero\", {}]", 
        "__wd_mult__": "0.0", 
        "eps": "1e-05", 
        "momentum": "0.9"
      }, 
      "inputs": []
    }, 
    {
      "op": "null", 
      "name": "bn_33_moving_var", 
      "attrs": {
        "__init__": "[\"one\", {}]", 
        "__wd_mult__": "0.0", 
        "eps": "1e-05", 
        "momentum": "0.9"
      }, 
      "inputs": []
    }, 
    {
      "op": "BatchNorm", 
      "name": "bn_33", 
      "attrs": {
        "__wd_mult__": "0.0", 
        "eps": "1e-05", 
        "momentum": "0.9"
      }, 
      "inputs": [[281, 0, 0], [282, 0, 0], [283, 0, 0], [284, 0, 1], [285, 0, 1]]
    }, 
    {
      "op": "LeakyReLU", 
      "name": "leaky_relu_33", 
      "attrs": {
        "act_type": "leaky", 
        "slope": "0.1"
      }, 
      "inputs": [[286, 0, 0]]
    }, 
    {
      "op": "null", 
      "name": "conv_34_weight", 
      "attrs": {
        "kernel": "(3, 3)", 
        "no_bias": "True", 
        "num_filter": "512", 
        "pad": "(1, 1)", 
        "stride": "(1, 1)"
      }, 
      "inputs": []
    }, 
    {
      "op": "Convolution", 
      "name": "conv_34", 
      "attrs": {
        "kernel": "(3, 3)", 
        "no_bias": "True", 
        "num_filter": "512", 
        "pad": "(1, 1)", 
        "stride": "(1, 1)"
      }, 
      "inputs": [[287, 0, 0], [288, 0, 0]]
    }, 
    {
      "op": "null", 
      "name": "bn_34_gamma", 
      "attrs": {
        "__wd_mult__": "0.0", 
        "eps": "1e-05", 
        "momentum": "0.9"
      }, 
      "inputs": []
    }, 
    {
      "op": "null", 
      "name": "bn_34_beta", 
      "attrs": {
        "__wd_mult__": "0.0", 
        "eps": "1e-05", 
        "momentum": "0.9"
      }, 
      "inputs": []
    }, 
    {
      "op": "null", 
      "name": "bn_34_moving_mean", 
      "attrs": {
        "__init__": "[\"zero\", {}]", 
        "__wd_mult__": "0.0", 
        "eps": "1e-05", 
        "momentum": "0.9"
      }, 
      "inputs": []
    }, 
    {
      "op": "null", 
      "name": "bn_34_moving_var", 
      "attrs": {
        "__init__": "[\"one\", {}]", 
        "__wd_mult__": "0.0", 
        "eps": "1e-05", 
        "momentum": "0.9"
      }, 
      "inputs": []
    }, 
    {
      "op": "BatchNorm", 
      "name": "bn_34", 
      "attrs": {
        "__wd_mult__": "0.0", 
        "eps": "1e-05", 
        "momentum": "0.9"
      }, 
      "inputs": [[289, 0, 0], [290, 0, 0], [291, 0, 0], [292, 0, 1], [293, 0, 1]]
    }, 
    {
      "op": "LeakyReLU", 
      "name": "leaky_relu_34", 
      "attrs": {
        "act_type": "leaky", 
        "slope": "0.1"
      }, 
      "inputs": [[294, 0, 0]]
    }, 
    {
      "op": "elemwise_add", 
      "name": "_plus14", 
      "inputs": [[295, 0, 0], [279, 0, 0]]
    }, 
    {
      "op": "null", 
      "name": "conv_35_weight", 
      "attrs": {
        "kernel": "(1, 1)", 
        "no_bias": "True", 
        "num_filter": "256", 
        "pad": "(0, 0)", 
        "stride": "(1, 1)"
      }, 
      "inputs": []
    }, 
    {
      "op": "Convolution", 
      "name": "conv_35", 
      "attrs": {
        "kernel": "(1, 1)", 
        "no_bias": "True", 
        "num_filter": "256", 
        "pad": "(0, 0)", 
        "stride": "(1, 1)"
      }, 
      "inputs": [[296, 0, 0], [297, 0, 0]]
    }, 
    {
      "op": "null", 
      "name": "bn_35_gamma", 
      "attrs": {
        "__wd_mult__": "0.0", 
        "eps": "1e-05", 
        "momentum": "0.9"
      }, 
      "inputs": []
    }, 
    {
      "op": "null", 
      "name": "bn_35_beta", 
      "attrs": {
        "__wd_mult__": "0.0", 
        "eps": "1e-05", 
        "momentum": "0.9"
      }, 
      "inputs": []
    }, 
    {
      "op": "null", 
      "name": "bn_35_moving_mean", 
      "attrs": {
        "__init__": "[\"zero\", {}]", 
        "__wd_mult__": "0.0", 
        "eps": "1e-05", 
        "momentum": "0.9"
      }, 
      "inputs": []
    }, 
    {
      "op": "null", 
      "name": "bn_35_moving_var", 
      "attrs": {
        "__init__": "[\"one\", {}]", 
        "__wd_mult__": "0.0", 
        "eps": "1e-05", 
        "momentum": "0.9"
      }, 
      "inputs": []
    }, 
    {
      "op": "BatchNorm", 
      "name": "bn_35", 
      "attrs": {
        "__wd_mult__": "0.0", 
        "eps": "1e-05", 
        "momentum": "0.9"
      }, 
      "inputs": [[298, 0, 0], [299, 0, 0], [300, 0, 0], [301, 0, 1], [302, 0, 1]]
    }, 
    {
      "op": "LeakyReLU", 
      "name": "leaky_relu_35", 
      "attrs": {
        "act_type": "leaky", 
        "slope": "0.1"
      }, 
      "inputs": [[303, 0, 0]]
    }, 
    {
      "op": "null", 
      "name": "conv_36_weight", 
      "attrs": {
        "kernel": "(3, 3)", 
        "no_bias": "True", 
        "num_filter": "512", 
        "pad": "(1, 1)", 
        "stride": "(1, 1)"
      }, 
      "inputs": []
    }, 
    {
      "op": "Convolution", 
      "name": "conv_36", 
      "attrs": {
        "kernel": "(3, 3)", 
        "no_bias": "True", 
        "num_filter": "512", 
        "pad": "(1, 1)", 
        "stride": "(1, 1)"
      }, 
      "inputs": [[304, 0, 0], [305, 0, 0]]
    }, 
    {
      "op": "null", 
      "name": "bn_36_gamma", 
      "attrs": {
        "__wd_mult__": "0.0", 
        "eps": "1e-05", 
        "momentum": "0.9"
      }, 
      "inputs": []
    }, 
    {
      "op": "null", 
      "name": "bn_36_beta", 
      "attrs": {
        "__wd_mult__": "0.0", 
        "eps": "1e-05", 
        "momentum": "0.9"
      }, 
      "inputs": []
    }, 
    {
      "op": "null", 
      "name": "bn_36_moving_mean", 
      "attrs": {
        "__init__": "[\"zero\", {}]", 
        "__wd_mult__": "0.0", 
        "eps": "1e-05", 
        "momentum": "0.9"
      }, 
      "inputs": []
    }, 
    {
      "op": "null", 
      "name": "bn_36_moving_var", 
      "attrs": {
        "__init__": "[\"one\", {}]", 
        "__wd_mult__": "0.0", 
        "eps": "1e-05", 
        "momentum": "0.9"
      }, 
      "inputs": []
    }, 
    {
      "op": "BatchNorm", 
      "name": "bn_36", 
      "attrs": {
        "__wd_mult__": "0.0", 
        "eps": "1e-05", 
        "momentum": "0.9"
      }, 
      "inputs": [[306, 0, 0], [307, 0, 0], [308, 0, 0], [309, 0, 1], [310, 0, 1]]
    }, 
    {
      "op": "LeakyReLU", 
      "name": "leaky_relu_36", 
      "attrs": {
        "act_type": "leaky", 
        "slope": "0.1"
      }, 
      "inputs": [[311, 0, 0]]
    }, 
    {
      "op": "elemwise_add", 
      "name": "_plus15", 
      "inputs": [[312, 0, 0], [296, 0, 0]]
    }, 
    {
      "op": "null", 
      "name": "conv_37_weight", 
      "attrs": {
        "kernel": "(1, 1)", 
        "no_bias": "True", 
        "num_filter": "256", 
        "pad": "(0, 0)", 
        "stride": "(1, 1)"
      }, 
      "inputs": []
    }, 
    {
      "op": "Convolution", 
      "name": "conv_37", 
      "attrs": {
        "kernel": "(1, 1)", 
        "no_bias": "True", 
        "num_filter": "256", 
        "pad": "(0, 0)", 
        "stride": "(1, 1)"
      }, 
      "inputs": [[313, 0, 0], [314, 0, 0]]
    }, 
    {
      "op": "null", 
      "name": "bn_37_gamma", 
      "attrs": {
        "__wd_mult__": "0.0", 
        "eps": "1e-05", 
        "momentum": "0.9"
      }, 
      "inputs": []
    }, 
    {
      "op": "null", 
      "name": "bn_37_beta", 
      "attrs": {
        "__wd_mult__": "0.0", 
        "eps": "1e-05", 
        "momentum": "0.9"
      }, 
      "inputs": []
    }, 
    {
      "op": "null", 
      "name": "bn_37_moving_mean", 
      "attrs": {
        "__init__": "[\"zero\", {}]", 
        "__wd_mult__": "0.0", 
        "eps": "1e-05", 
        "momentum": "0.9"
      }, 
      "inputs": []
    }, 
    {
      "op": "null", 
      "name": "bn_37_moving_var", 
      "attrs": {
        "__init__": "[\"one\", {}]", 
        "__wd_mult__": "0.0", 
        "eps": "1e-05", 
        "momentum": "0.9"
      }, 
      "inputs": []
    }, 
    {
      "op": "BatchNorm", 
      "name": "bn_37", 
      "attrs": {
        "__wd_mult__": "0.0", 
        "eps": "1e-05", 
        "momentum": "0.9"
      }, 
      "inputs": [[315, 0, 0], [316, 0, 0], [317, 0, 0], [318, 0, 1], [319, 0, 1]]
    }, 
    {
      "op": "LeakyReLU", 
      "name": "leaky_relu_37", 
      "attrs": {
        "act_type": "leaky", 
        "slope": "0.1"
      }, 
      "inputs": [[320, 0, 0]]
    }, 
    {
      "op": "null", 
      "name": "conv_38_weight", 
      "attrs": {
        "kernel": "(3, 3)", 
        "no_bias": "True", 
        "num_filter": "512", 
        "pad": "(1, 1)", 
        "stride": "(1, 1)"
      }, 
      "inputs": []
    }, 
    {
      "op": "Convolution", 
      "name": "conv_38", 
      "attrs": {
        "kernel": "(3, 3)", 
        "no_bias": "True", 
        "num_filter": "512", 
        "pad": "(1, 1)", 
        "stride": "(1, 1)"
      }, 
      "inputs": [[321, 0, 0], [322, 0, 0]]
    }, 
    {
      "op": "null", 
      "name": "bn_38_gamma", 
      "attrs": {
        "__wd_mult__": "0.0", 
        "eps": "1e-05", 
        "momentum": "0.9"
      }, 
      "inputs": []
    }, 
    {
      "op": "null", 
      "name": "bn_38_beta", 
      "attrs": {
        "__wd_mult__": "0.0", 
        "eps": "1e-05", 
        "momentum": "0.9"
      }, 
      "inputs": []
    }, 
    {
      "op": "null", 
      "name": "bn_38_moving_mean", 
      "attrs": {
        "__init__": "[\"zero\", {}]", 
        "__wd_mult__": "0.0", 
        "eps": "1e-05", 
        "momentum": "0.9"
      }, 
      "inputs": []
    }, 
    {
      "op": "null", 
      "name": "bn_38_moving_var", 
      "attrs": {
        "__init__": "[\"one\", {}]", 
        "__wd_mult__": "0.0", 
        "eps": "1e-05", 
        "momentum": "0.9"
      }, 
      "inputs": []
    }, 
    {
      "op": "BatchNorm", 
      "name": "bn_38", 
      "attrs": {
        "__wd_mult__": "0.0", 
        "eps": "1e-05", 
        "momentum": "0.9"
      }, 
      "inputs": [[323, 0, 0], [324, 0, 0], [325, 0, 0], [326, 0, 1], [327, 0, 1]]
    }, 
    {
      "op": "LeakyReLU", 
      "name": "leaky_relu_38", 
      "attrs": {
        "act_type": "leaky", 
        "slope": "0.1"
      }, 
      "inputs": [[328, 0, 0]]
    }, 
    {
      "op": "elemwise_add", 
      "name": "_plus16", 
      "inputs": [[329, 0, 0], [313, 0, 0]]
    }, 
    {
      "op": "null", 
      "name": "conv_39_weight", 
      "attrs": {
        "kernel": "(1, 1)", 
        "no_bias": "True", 
        "num_filter": "256", 
        "pad": "(0, 0)", 
        "stride": "(1, 1)"
      }, 
      "inputs": []
    }, 
    {
      "op": "Convolution", 
      "name": "conv_39", 
      "attrs": {
        "kernel": "(1, 1)", 
        "no_bias": "True", 
        "num_filter": "256", 
        "pad": "(0, 0)", 
        "stride": "(1, 1)"
      }, 
      "inputs": [[330, 0, 0], [331, 0, 0]]
    }, 
    {
      "op": "null", 
      "name": "bn_39_gamma", 
      "attrs": {
        "__wd_mult__": "0.0", 
        "eps": "1e-05", 
        "momentum": "0.9"
      }, 
      "inputs": []
    }, 
    {
      "op": "null", 
      "name": "bn_39_beta", 
      "attrs": {
        "__wd_mult__": "0.0", 
        "eps": "1e-05", 
        "momentum": "0.9"
      }, 
      "inputs": []
    }, 
    {
      "op": "null", 
      "name": "bn_39_moving_mean", 
      "attrs": {
        "__init__": "[\"zero\", {}]", 
        "__wd_mult__": "0.0", 
        "eps": "1e-05", 
        "momentum": "0.9"
      }, 
      "inputs": []
    }, 
    {
      "op": "null", 
      "name": "bn_39_moving_var", 
      "attrs": {
        "__init__": "[\"one\", {}]", 
        "__wd_mult__": "0.0", 
        "eps": "1e-05", 
        "momentum": "0.9"
      }, 
      "inputs": []
    }, 
    {
      "op": "BatchNorm", 
      "name": "bn_39", 
      "attrs": {
        "__wd_mult__": "0.0", 
        "eps": "1e-05", 
        "momentum": "0.9"
      }, 
      "inputs": [[332, 0, 0], [333, 0, 0], [334, 0, 0], [335, 0, 1], [336, 0, 1]]
    }, 
    {
      "op": "LeakyReLU", 
      "name": "leaky_relu_39", 
      "attrs": {
        "act_type": "leaky", 
        "slope": "0.1"
      }, 
      "inputs": [[337, 0, 0]]
    }, 
    {
      "op": "null", 
      "name": "conv_40_weight", 
      "attrs": {
        "kernel": "(3, 3)", 
        "no_bias": "True", 
        "num_filter": "512", 
        "pad": "(1, 1)", 
        "stride": "(1, 1)"
      }, 
      "inputs": []
    }, 
    {
      "op": "Convolution", 
      "name": "conv_40", 
      "attrs": {
        "kernel": "(3, 3)", 
        "no_bias": "True", 
        "num_filter": "512", 
        "pad": "(1, 1)", 
        "stride": "(1, 1)"
      }, 
      "inputs": [[338, 0, 0], [339, 0, 0]]
    }, 
    {
      "op": "null", 
      "name": "bn_40_gamma", 
      "attrs": {
        "__wd_mult__": "0.0", 
        "eps": "1e-05", 
        "momentum": "0.9"
      }, 
      "inputs": []
    }, 
    {
      "op": "null", 
      "name": "bn_40_beta", 
      "attrs": {
        "__wd_mult__": "0.0", 
        "eps": "1e-05", 
        "momentum": "0.9"
      }, 
      "inputs": []
    }, 
    {
      "op": "null", 
      "name": "bn_40_moving_mean", 
      "attrs": {
        "__init__": "[\"zero\", {}]", 
        "__wd_mult__": "0.0", 
        "eps": "1e-05", 
        "momentum": "0.9"
      }, 
      "inputs": []
    }, 
    {
      "op": "null", 
      "name": "bn_40_moving_var", 
      "attrs": {
        "__init__": "[\"one\", {}]", 
        "__wd_mult__": "0.0", 
        "eps": "1e-05", 
        "momentum": "0.9"
      }, 
      "inputs": []
    }, 
    {
      "op": "BatchNorm", 
      "name": "bn_40", 
      "attrs": {
        "__wd_mult__": "0.0", 
        "eps": "1e-05", 
        "momentum": "0.9"
      }, 
      "inputs": [[340, 0, 0], [341, 0, 0], [342, 0, 0], [343, 0, 1], [344, 0, 1]]
    }, 
    {
      "op": "LeakyReLU", 
      "name": "leaky_relu_40", 
      "attrs": {
        "act_type": "leaky", 
        "slope": "0.1"
      }, 
      "inputs": [[345, 0, 0]]
    }, 
    {
      "op": "elemwise_add", 
      "name": "_plus17", 
      "inputs": [[346, 0, 0], [330, 0, 0]]
    }, 
    {
      "op": "null", 
      "name": "conv_41_weight", 
      "attrs": {
        "kernel": "(1, 1)", 
        "no_bias": "True", 
        "num_filter": "256", 
        "pad": "(0, 0)", 
        "stride": "(1, 1)"
      }, 
      "inputs": []
    }, 
    {
      "op": "Convolution", 
      "name": "conv_41", 
      "attrs": {
        "kernel": "(1, 1)", 
        "no_bias": "True", 
        "num_filter": "256", 
        "pad": "(0, 0)", 
        "stride": "(1, 1)"
      }, 
      "inputs": [[347, 0, 0], [348, 0, 0]]
    }, 
    {
      "op": "null", 
      "name": "bn_41_gamma", 
      "attrs": {
        "__wd_mult__": "0.0", 
        "eps": "1e-05", 
        "momentum": "0.9"
      }, 
      "inputs": []
    }, 
    {
      "op": "null", 
      "name": "bn_41_beta", 
      "attrs": {
        "__wd_mult__": "0.0", 
        "eps": "1e-05", 
        "momentum": "0.9"
      }, 
      "inputs": []
    }, 
    {
      "op": "null", 
      "name": "bn_41_moving_mean", 
      "attrs": {
        "__init__": "[\"zero\", {}]", 
        "__wd_mult__": "0.0", 
        "eps": "1e-05", 
        "momentum": "0.9"
      }, 
      "inputs": []
    }, 
    {
      "op": "null", 
      "name": "bn_41_moving_var", 
      "attrs": {
        "__init__": "[\"one\", {}]", 
        "__wd_mult__": "0.0", 
        "eps": "1e-05", 
        "momentum": "0.9"
      }, 
      "inputs": []
    }, 
    {
      "op": "BatchNorm", 
      "name": "bn_41", 
      "attrs": {
        "__wd_mult__": "0.0", 
        "eps": "1e-05", 
        "momentum": "0.9"
      }, 
      "inputs": [[349, 0, 0], [350, 0, 0], [351, 0, 0], [352, 0, 1], [353, 0, 1]]
    }, 
    {
      "op": "LeakyReLU", 
      "name": "leaky_relu_41", 
      "attrs": {
        "act_type": "leaky", 
        "slope": "0.1"
      }, 
      "inputs": [[354, 0, 0]]
    }, 
    {
      "op": "null", 
      "name": "conv_42_weight", 
      "attrs": {
        "kernel": "(3, 3)", 
        "no_bias": "True", 
        "num_filter": "512", 
        "pad": "(1, 1)", 
        "stride": "(1, 1)"
      }, 
      "inputs": []
    }, 
    {
      "op": "Convolution", 
      "name": "conv_42", 
      "attrs": {
        "kernel": "(3, 3)", 
        "no_bias": "True", 
        "num_filter": "512", 
        "pad": "(1, 1)", 
        "stride": "(1, 1)"
      }, 
      "inputs": [[355, 0, 0], [356, 0, 0]]
    }, 
    {
      "op": "null", 
      "name": "bn_42_gamma", 
      "attrs": {
        "__wd_mult__": "0.0", 
        "eps": "1e-05", 
        "momentum": "0.9"
      }, 
      "inputs": []
    }, 
    {
      "op": "null", 
      "name": "bn_42_beta", 
      "attrs": {
        "__wd_mult__": "0.0", 
        "eps": "1e-05", 
        "momentum": "0.9"
      }, 
      "inputs": []
    }, 
    {
      "op": "null", 
      "name": "bn_42_moving_mean", 
      "attrs": {
        "__init__": "[\"zero\", {}]", 
        "__wd_mult__": "0.0", 
        "eps": "1e-05", 
        "momentum": "0.9"
      }, 
      "inputs": []
    }, 
    {
      "op": "null", 
      "name": "bn_42_moving_var", 
      "attrs": {
        "__init__": "[\"one\", {}]", 
        "__wd_mult__": "0.0", 
        "eps": "1e-05", 
        "momentum": "0.9"
      }, 
      "inputs": []
    }, 
    {
      "op": "BatchNorm", 
      "name": "bn_42", 
      "attrs": {
        "__wd_mult__": "0.0", 
        "eps": "1e-05", 
        "momentum": "0.9"
      }, 
      "inputs": [[357, 0, 0], [358, 0, 0], [359, 0, 0], [360, 0, 1], [361, 0, 1]]
    }, 
    {
      "op": "LeakyReLU", 
      "name": "leaky_relu_42", 
      "attrs": {
        "act_type": "leaky", 
        "slope": "0.1"
      }, 
      "inputs": [[362, 0, 0]]
    }, 
    {
      "op": "elemwise_add", 
      "name": "_plus18", 
      "inputs": [[363, 0, 0], [347, 0, 0]]
    }, 
    {
      "op": "null", 
      "name": "conv_43_weight", 
      "attrs": {
        "kernel": "(3, 3)", 
        "no_bias": "True", 
        "num_filter": "1024", 
        "pad": "(1, 1)", 
        "stride": "(2, 2)"
      }, 
      "inputs": []
    }, 
    {
      "op": "Convolution", 
      "name": "conv_43", 
      "attrs": {
        "kernel": "(3, 3)", 
        "no_bias": "True", 
        "num_filter": "1024", 
        "pad": "(1, 1)", 
        "stride": "(2, 2)"
      }, 
      "inputs": [[364, 0, 0], [365, 0, 0]]
    }, 
    {
      "op": "null", 
      "name": "bn_43_gamma", 
      "attrs": {
        "__wd_mult__": "0.0", 
        "eps": "1e-05", 
        "momentum": "0.9"
      }, 
      "inputs": []
    }, 
    {
      "op": "null", 
      "name": "bn_43_beta", 
      "attrs": {
        "__wd_mult__": "0.0", 
        "eps": "1e-05", 
        "momentum": "0.9"
      }, 
      "inputs": []
    }, 
    {
      "op": "null", 
      "name": "bn_43_moving_mean", 
      "attrs": {
        "__init__": "[\"zero\", {}]", 
        "__wd_mult__": "0.0", 
        "eps": "1e-05", 
        "momentum": "0.9"
      }, 
      "inputs": []
    }, 
    {
      "op": "null", 
      "name": "bn_43_moving_var", 
      "attrs": {
        "__init__": "[\"one\", {}]", 
        "__wd_mult__": "0.0", 
        "eps": "1e-05", 
        "momentum": "0.9"
      }, 
      "inputs": []
    }, 
    {
      "op": "BatchNorm", 
      "name": "bn_43", 
      "attrs": {
        "__wd_mult__": "0.0", 
        "eps": "1e-05", 
        "momentum": "0.9"
      }, 
      "inputs": [[366, 0, 0], [367, 0, 0], [368, 0, 0], [369, 0, 1], [370, 0, 1]]
    }, 
    {
      "op": "LeakyReLU", 
      "name": "leaky_relu_43", 
      "attrs": {
        "act_type": "leaky", 
        "slope": "0.1"
      }, 
      "inputs": [[371, 0, 0]]
    }, 
    {
      "op": "null", 
      "name": "conv_44_weight", 
      "attrs": {
        "kernel": "(1, 1)", 
        "no_bias": "True", 
        "num_filter": "512", 
        "pad": "(0, 0)", 
        "stride": "(1, 1)"
      }, 
      "inputs": []
    }, 
    {
      "op": "Convolution", 
      "name": "conv_44", 
      "attrs": {
        "kernel": "(1, 1)", 
        "no_bias": "True", 
        "num_filter": "512", 
        "pad": "(0, 0)", 
        "stride": "(1, 1)"
      }, 
      "inputs": [[372, 0, 0], [373, 0, 0]]
    }, 
    {
      "op": "null", 
      "name": "bn_44_gamma", 
      "attrs": {
        "__wd_mult__": "0.0", 
        "eps": "1e-05", 
        "momentum": "0.9"
      }, 
      "inputs": []
    }, 
    {
      "op": "null", 
      "name": "bn_44_beta", 
      "attrs": {
        "__wd_mult__": "0.0", 
        "eps": "1e-05", 
        "momentum": "0.9"
      }, 
      "inputs": []
    }, 
    {
      "op": "null", 
      "name": "bn_44_moving_mean", 
      "attrs": {
        "__init__": "[\"zero\", {}]", 
        "__wd_mult__": "0.0", 
        "eps": "1e-05", 
        "momentum": "0.9"
      }, 
      "inputs": []
    }, 
    {
      "op": "null", 
      "name": "bn_44_moving_var", 
      "attrs": {
        "__init__": "[\"one\", {}]", 
        "__wd_mult__": "0.0", 
        "eps": "1e-05", 
        "momentum": "0.9"
      }, 
      "inputs": []
    }, 
    {
      "op": "BatchNorm", 
      "name": "bn_44", 
      "attrs": {
        "__wd_mult__": "0.0", 
        "eps": "1e-05", 
        "momentum": "0.9"
      }, 
      "inputs": [[374, 0, 0], [375, 0, 0], [376, 0, 0], [377, 0, 1], [378, 0, 1]]
    }, 
    {
      "op": "LeakyReLU", 
      "name": "leaky_relu_44", 
      "attrs": {
        "act_type": "leaky", 
        "slope": "0.1"
      }, 
      "inputs": [[379, 0, 0]]
    }, 
    {
      "op": "null", 
      "name": "conv_45_weight", 
      "attrs": {
        "kernel": "(3, 3)", 
        "no_bias": "True", 
        "num_filter": "1024", 
        "pad": "(1, 1)", 
        "stride": "(1, 1)"
      }, 
      "inputs": []
    }, 
    {
      "op": "Convolution", 
      "name": "conv_45", 
      "attrs": {
        "kernel": "(3, 3)", 
        "no_bias": "True", 
        "num_filter": "1024", 
        "pad": "(1, 1)", 
        "stride": "(1, 1)"
      }, 
      "inputs": [[380, 0, 0], [381, 0, 0]]
    }, 
    {
      "op": "null", 
      "name": "bn_45_gamma", 
      "attrs": {
        "__wd_mult__": "0.0", 
        "eps": "1e-05", 
        "momentum": "0.9"
      }, 
      "inputs": []
    }, 
    {
      "op": "null", 
      "name": "bn_45_beta", 
      "attrs": {
        "__wd_mult__": "0.0", 
        "eps": "1e-05", 
        "momentum": "0.9"
      }, 
      "inputs": []
    }, 
    {
      "op": "null", 
      "name": "bn_45_moving_mean", 
      "attrs": {
        "__init__": "[\"zero\", {}]", 
        "__wd_mult__": "0.0", 
        "eps": "1e-05", 
        "momentum": "0.9"
      }, 
      "inputs": []
    }, 
    {
      "op": "null", 
      "name": "bn_45_moving_var", 
      "attrs": {
        "__init__": "[\"one\", {}]", 
        "__wd_mult__": "0.0", 
        "eps": "1e-05", 
        "momentum": "0.9"
      }, 
      "inputs": []
    }, 
    {
      "op": "BatchNorm", 
      "name": "bn_45", 
      "attrs": {
        "__wd_mult__": "0.0", 
        "eps": "1e-05", 
        "momentum": "0.9"
      }, 
      "inputs": [[382, 0, 0], [383, 0, 0], [384, 0, 0], [385, 0, 1], [386, 0, 1]]
    }, 
    {
      "op": "LeakyReLU", 
      "name": "leaky_relu_45", 
      "attrs": {
        "act_type": "leaky", 
        "slope": "0.1"
      }, 
      "inputs": [[387, 0, 0]]
    }, 
    {
      "op": "elemwise_add", 
      "name": "_plus19", 
      "inputs": [[388, 0, 0], [372, 0, 0]]
    }, 
    {
      "op": "null", 
      "name": "conv_46_weight", 
      "attrs": {
        "kernel": "(1, 1)", 
        "no_bias": "True", 
        "num_filter": "512", 
        "pad": "(0, 0)", 
        "stride": "(1, 1)"
      }, 
      "inputs": []
    }, 
    {
      "op": "Convolution", 
      "name": "conv_46", 
      "attrs": {
        "kernel": "(1, 1)", 
        "no_bias": "True", 
        "num_filter": "512", 
        "pad": "(0, 0)", 
        "stride": "(1, 1)"
      }, 
      "inputs": [[389, 0, 0], [390, 0, 0]]
    }, 
    {
      "op": "null", 
      "name": "bn_46_gamma", 
      "attrs": {
        "__wd_mult__": "0.0", 
        "eps": "1e-05", 
        "momentum": "0.9"
      }, 
      "inputs": []
    }, 
    {
      "op": "null", 
      "name": "bn_46_beta", 
      "attrs": {
        "__wd_mult__": "0.0", 
        "eps": "1e-05", 
        "momentum": "0.9"
      }, 
      "inputs": []
    }, 
    {
      "op": "null", 
      "name": "bn_46_moving_mean", 
      "attrs": {
        "__init__": "[\"zero\", {}]", 
        "__wd_mult__": "0.0", 
        "eps": "1e-05", 
        "momentum": "0.9"
      }, 
      "inputs": []
    }, 
    {
      "op": "null", 
      "name": "bn_46_moving_var", 
      "attrs": {
        "__init__": "[\"one\", {}]", 
        "__wd_mult__": "0.0", 
        "eps": "1e-05", 
        "momentum": "0.9"
      }, 
      "inputs": []
    }, 
    {
      "op": "BatchNorm", 
      "name": "bn_46", 
      "attrs": {
        "__wd_mult__": "0.0", 
        "eps": "1e-05", 
        "momentum": "0.9"
      }, 
      "inputs": [[391, 0, 0], [392, 0, 0], [393, 0, 0], [394, 0, 1], [395, 0, 1]]
    }, 
    {
      "op": "LeakyReLU", 
      "name": "leaky_relu_46", 
      "attrs": {
        "act_type": "leaky", 
        "slope": "0.1"
      }, 
      "inputs": [[396, 0, 0]]
    }, 
    {
      "op": "null", 
      "name": "conv_47_weight", 
      "attrs": {
        "kernel": "(3, 3)", 
        "no_bias": "True", 
        "num_filter": "1024", 
        "pad": "(1, 1)", 
        "stride": "(1, 1)"
      }, 
      "inputs": []
    }, 
    {
      "op": "Convolution", 
      "name": "conv_47", 
      "attrs": {
        "kernel": "(3, 3)", 
        "no_bias": "True", 
        "num_filter": "1024", 
        "pad": "(1, 1)", 
        "stride": "(1, 1)"
      }, 
      "inputs": [[397, 0, 0], [398, 0, 0]]
    }, 
    {
      "op": "null", 
      "name": "bn_47_gamma", 
      "attrs": {
        "__wd_mult__": "0.0", 
        "eps": "1e-05", 
        "momentum": "0.9"
      }, 
      "inputs": []
    }, 
    {
      "op": "null", 
      "name": "bn_47_beta", 
      "attrs": {
        "__wd_mult__": "0.0", 
        "eps": "1e-05", 
        "momentum": "0.9"
      }, 
      "inputs": []
    }, 
    {
      "op": "null", 
      "name": "bn_47_moving_mean", 
      "attrs": {
        "__init__": "[\"zero\", {}]", 
        "__wd_mult__": "0.0", 
        "eps": "1e-05", 
        "momentum": "0.9"
      }, 
      "inputs": []
    }, 
    {
      "op": "null", 
      "name": "bn_47_moving_var", 
      "attrs": {
        "__init__": "[\"one\", {}]", 
        "__wd_mult__": "0.0", 
        "eps": "1e-05", 
        "momentum": "0.9"
      }, 
      "inputs": []
    }, 
    {
      "op": "BatchNorm", 
      "name": "bn_47", 
      "attrs": {
        "__wd_mult__": "0.0", 
        "eps": "1e-05", 
        "momentum": "0.9"
      }, 
      "inputs": [[399, 0, 0], [400, 0, 0], [401, 0, 0], [402, 0, 1], [403, 0, 1]]
    }, 
    {
      "op": "LeakyReLU", 
      "name": "leaky_relu_47", 
      "attrs": {
        "act_type": "leaky", 
        "slope": "0.1"
      }, 
      "inputs": [[404, 0, 0]]
    }, 
    {
      "op": "elemwise_add", 
      "name": "_plus20", 
      "inputs": [[405, 0, 0], [389, 0, 0]]
    }, 
    {
      "op": "null", 
      "name": "conv_48_weight", 
      "attrs": {
        "kernel": "(1, 1)", 
        "no_bias": "True", 
        "num_filter": "512", 
        "pad": "(0, 0)", 
        "stride": "(1, 1)"
      }, 
      "inputs": []
    }, 
    {
      "op": "Convolution", 
      "name": "conv_48", 
      "attrs": {
        "kernel": "(1, 1)", 
        "no_bias": "True", 
        "num_filter": "512", 
        "pad": "(0, 0)", 
        "stride": "(1, 1)"
      }, 
      "inputs": [[406, 0, 0], [407, 0, 0]]
    }, 
    {
      "op": "null", 
      "name": "bn_48_gamma", 
      "attrs": {
        "__wd_mult__": "0.0", 
        "eps": "1e-05", 
        "momentum": "0.9"
      }, 
      "inputs": []
    }, 
    {
      "op": "null", 
      "name": "bn_48_beta", 
      "attrs": {
        "__wd_mult__": "0.0", 
        "eps": "1e-05", 
        "momentum": "0.9"
      }, 
      "inputs": []
    }, 
    {
      "op": "null", 
      "name": "bn_48_moving_mean", 
      "attrs": {
        "__init__": "[\"zero\", {}]", 
        "__wd_mult__": "0.0", 
        "eps": "1e-05", 
        "momentum": "0.9"
      }, 
      "inputs": []
    }, 
    {
      "op": "null", 
      "name": "bn_48_moving_var", 
      "attrs": {
        "__init__": "[\"one\", {}]", 
        "__wd_mult__": "0.0", 
        "eps": "1e-05", 
        "momentum": "0.9"
      }, 
      "inputs": []
    }, 
    {
      "op": "BatchNorm", 
      "name": "bn_48", 
      "attrs": {
        "__wd_mult__": "0.0", 
        "eps": "1e-05", 
        "momentum": "0.9"
      }, 
      "inputs": [[408, 0, 0], [409, 0, 0], [410, 0, 0], [411, 0, 1], [412, 0, 1]]
    }, 
    {
      "op": "LeakyReLU", 
      "name": "leaky_relu_48", 
      "attrs": {
        "act_type": "leaky", 
        "slope": "0.1"
      }, 
      "inputs": [[413, 0, 0]]
    }, 
    {
      "op": "null", 
      "name": "conv_49_weight", 
      "attrs": {
        "kernel": "(3, 3)", 
        "no_bias": "True", 
        "num_filter": "1024", 
        "pad": "(1, 1)", 
        "stride": "(1, 1)"
      }, 
      "inputs": []
    }, 
    {
      "op": "Convolution", 
      "name": "conv_49", 
      "attrs": {
        "kernel": "(3, 3)", 
        "no_bias": "True", 
        "num_filter": "1024", 
        "pad": "(1, 1)", 
        "stride": "(1, 1)"
      }, 
      "inputs": [[414, 0, 0], [415, 0, 0]]
    }, 
    {
      "op": "null", 
      "name": "bn_49_gamma", 
      "attrs": {
        "__wd_mult__": "0.0", 
        "eps": "1e-05", 
        "momentum": "0.9"
      }, 
      "inputs": []
    }, 
    {
      "op": "null", 
      "name": "bn_49_beta", 
      "attrs": {
        "__wd_mult__": "0.0", 
        "eps": "1e-05", 
        "momentum": "0.9"
      }, 
      "inputs": []
    }, 
    {
      "op": "null", 
      "name": "bn_49_moving_mean", 
      "attrs": {
        "__init__": "[\"zero\", {}]", 
        "__wd_mult__": "0.0", 
        "eps": "1e-05", 
        "momentum": "0.9"
      }, 
      "inputs": []
    }, 
    {
      "op": "null", 
      "name": "bn_49_moving_var", 
      "attrs": {
        "__init__": "[\"one\", {}]", 
        "__wd_mult__": "0.0", 
        "eps": "1e-05", 
        "momentum": "0.9"
      }, 
      "inputs": []
    }, 
    {
      "op": "BatchNorm", 
      "name": "bn_49", 
      "attrs": {
        "__wd_mult__": "0.0", 
        "eps": "1e-05", 
        "momentum": "0.9"
      }, 
      "inputs": [[416, 0, 0], [417, 0, 0], [418, 0, 0], [419, 0, 1], [420, 0, 1]]
    }, 
    {
      "op": "LeakyReLU", 
      "name": "leaky_relu_49", 
      "attrs": {
        "act_type": "leaky", 
        "slope": "0.1"
      }, 
      "inputs": [[421, 0, 0]]
    }, 
    {
      "op": "elemwise_add", 
      "name": "_plus21", 
      "inputs": [[422, 0, 0], [406, 0, 0]]
    }, 
    {
      "op": "null", 
      "name": "conv_50_weight", 
      "attrs": {
        "kernel": "(1, 1)", 
        "no_bias": "True", 
        "num_filter": "512", 
        "pad": "(0, 0)", 
        "stride": "(1, 1)"
      }, 
      "inputs": []
    }, 
    {
      "op": "Convolution", 
      "name": "conv_50", 
      "attrs": {
        "kernel": "(1, 1)", 
        "no_bias": "True", 
        "num_filter": "512", 
        "pad": "(0, 0)", 
        "stride": "(1, 1)"
      }, 
      "inputs": [[423, 0, 0], [424, 0, 0]]
    }, 
    {
      "op": "null", 
      "name": "bn_50_gamma", 
      "attrs": {
        "__wd_mult__": "0.0", 
        "eps": "1e-05", 
        "momentum": "0.9"
      }, 
      "inputs": []
    }, 
    {
      "op": "null", 
      "name": "bn_50_beta", 
      "attrs": {
        "__wd_mult__": "0.0", 
        "eps": "1e-05", 
        "momentum": "0.9"
      }, 
      "inputs": []
    }, 
    {
      "op": "null", 
      "name": "bn_50_moving_mean", 
      "attrs": {
        "__init__": "[\"zero\", {}]", 
        "__wd_mult__": "0.0", 
        "eps": "1e-05", 
        "momentum": "0.9"
      }, 
      "inputs": []
    }, 
    {
      "op": "null", 
      "name": "bn_50_moving_var", 
      "attrs": {
        "__init__": "[\"one\", {}]", 
        "__wd_mult__": "0.0", 
        "eps": "1e-05", 
        "momentum": "0.9"
      }, 
      "inputs": []
    }, 
    {
      "op": "BatchNorm", 
      "name": "bn_50", 
      "attrs": {
        "__wd_mult__": "0.0", 
        "eps": "1e-05", 
        "momentum": "0.9"
      }, 
      "inputs": [[425, 0, 0], [426, 0, 0], [427, 0, 0], [428, 0, 1], [429, 0, 1]]
    }, 
    {
      "op": "LeakyReLU", 
      "name": "leaky_relu_50", 
      "attrs": {
        "act_type": "leaky", 
        "slope": "0.1"
      }, 
      "inputs": [[430, 0, 0]]
    }, 
    {
      "op": "null", 
      "name": "conv_51_weight", 
      "attrs": {
        "kernel": "(3, 3)", 
        "no_bias": "True", 
        "num_filter": "1024", 
        "pad": "(1, 1)", 
        "stride": "(1, 1)"
      }, 
      "inputs": []
    }, 
    {
      "op": "Convolution", 
      "name": "conv_51", 
      "attrs": {
        "kernel": "(3, 3)", 
        "no_bias": "True", 
        "num_filter": "1024", 
        "pad": "(1, 1)", 
        "stride": "(1, 1)"
      }, 
      "inputs": [[431, 0, 0], [432, 0, 0]]
    }, 
    {
      "op": "null", 
      "name": "bn_51_gamma", 
      "attrs": {
        "__wd_mult__": "0.0", 
        "eps": "1e-05", 
        "momentum": "0.9"
      }, 
      "inputs": []
    }, 
    {
      "op": "null", 
      "name": "bn_51_beta", 
      "attrs": {
        "__wd_mult__": "0.0", 
        "eps": "1e-05", 
        "momentum": "0.9"
      }, 
      "inputs": []
    }, 
    {
      "op": "null", 
      "name": "bn_51_moving_mean", 
      "attrs": {
        "__init__": "[\"zero\", {}]", 
        "__wd_mult__": "0.0", 
        "eps": "1e-05", 
        "momentum": "0.9"
      }, 
      "inputs": []
    }, 
    {
      "op": "null", 
      "name": "bn_51_moving_var", 
      "attrs": {
        "__init__": "[\"one\", {}]", 
        "__wd_mult__": "0.0", 
        "eps": "1e-05", 
        "momentum": "0.9"
      }, 
      "inputs": []
    }, 
    {
      "op": "BatchNorm", 
      "name": "bn_51", 
      "attrs": {
        "__wd_mult__": "0.0", 
        "eps": "1e-05", 
        "momentum": "0.9"
      }, 
      "inputs": [[433, 0, 0], [434, 0, 0], [435, 0, 0], [436, 0, 1], [437, 0, 1]]
    }, 
    {
      "op": "LeakyReLU", 
      "name": "leaky_relu_51", 
      "attrs": {
        "act_type": "leaky", 
        "slope": "0.1"
      }, 
      "inputs": [[438, 0, 0]]
    }, 
    {
      "op": "elemwise_add", 
      "name": "_plus22", 
      "inputs": [[439, 0, 0], [423, 0, 0]]
    }, 
    {
      "op": "Pooling", 
      "name": "pool", 
      "attrs": {
        "global_pool": "True", 
        "kernel": "(7, 7)", 
        "pool_type": "avg"
      }, 
      "inputs": [[440, 0, 0]]
    }, 
    {
      "op": "null", 
      "name": "fullyconnect_weight", 
      "attrs": {"num_hidden": "1000"}, 
      "inputs": []
    }, 
    {
      "op": "null", 
      "name": "fullyconnect_bias", 
      "attrs": {"num_hidden": "1000"}, 
      "inputs": []
    }, 
    {
      "op": "FullyConnected", 
      "name": "fullyconnect", 
      "attrs": {"num_hidden": "1000"}, 
      "inputs": [[441, 0, 0], [442, 0, 0], [443, 0, 0]]
    }, 
    {
      "op": "Cast", 
      "name": "cast1", 
      "attrs": {"dtype": "float32"}, 
      "inputs": [[444, 0, 0]]
    }, 
    {
      "op": "null", 
      "name": "softmax_label", 
      "attrs": {"smooth_alpha": "0.1"}, 
      "inputs": []
    }, 
    {
      "op": "SoftmaxOutput", 
      "name": "softmax", 
      "attrs": {"smooth_alpha": "0.1"}, 
      "inputs": [[445, 0, 0], [446, 0, 0]]
    }
  ], 
  "arg_nodes": [
    0, 
    2, 
    4, 
    5, 
    6, 
    7, 
    10, 
    12, 
    13, 
    14, 
    15, 
    18, 
    20, 
    21, 
    22, 
    23, 
    26, 
    28, 
    29, 
    30, 
    31, 
    35, 
    37, 
    38, 
    39, 
    40, 
    43, 
    45, 
    46, 
    47, 
    48, 
    51, 
    53, 
    54, 
    55, 
    56, 
    60, 
    62, 
    63, 
    64, 
    65, 
    68, 
    70, 
    71, 
    72, 
    73, 
    77, 
    79, 
    80, 
    81, 
    82, 
    85, 
    87, 
    88, 
    89, 
    90, 
    93, 
    95, 
    96, 
    97, 
    98, 
    102, 
    104, 
    105, 
    106, 
    107, 
    110, 
    112, 
    113, 
    114, 
    115, 
    119, 
    121, 
    122, 
    123, 
    124, 
    127, 
    129, 
    130, 
    131, 
    132, 
    136, 
    138, 
    139, 
    140, 
    141, 
    144, 
    146, 
    147, 
    148, 
    149, 
    153, 
    155, 
    156, 
    157, 
    158, 
    161, 
    163, 
    164, 
    165, 
    166, 
    170, 
    172, 
    173, 
    174, 
    175, 
    178, 
    180, 
    181, 
    182, 
    183, 
    187, 
    189, 
    190, 
    191, 
    192, 
    195, 
    197, 
    198, 
    199, 
    200, 
    204, 
    206, 
    207, 
    208, 
    209, 
    212, 
    214, 
    215, 
    216, 
    217, 
    221, 
    223, 
    224, 
    225, 
    226, 
    229, 
    231, 
    232, 
    233, 
    234, 
    237, 
    239, 
    240, 
    241, 
    242, 
    246, 
    248, 
    249, 
    250, 
    251, 
    254, 
    256, 
    257, 
    258, 
    259, 
    263, 
    265, 
    266, 
    267, 
    268, 
    271, 
    273, 
    274, 
    275, 
    276, 
    280, 
    282, 
    283, 
    284, 
    285, 
    288, 
    290, 
    291, 
    292, 
    293, 
    297, 
    299, 
    300, 
    301, 
    302, 
    305, 
    307, 
    308, 
    309, 
    310, 
    314, 
    316, 
    317, 
    318, 
    319, 
    322, 
    324, 
    325, 
    326, 
    327, 
    331, 
    333, 
    334, 
    335, 
    336, 
    339, 
    341, 
    342, 
    343, 
    344, 
    348, 
    350, 
    351, 
    352, 
    353, 
    356, 
    358, 
    359, 
    360, 
    361, 
    365, 
    367, 
    368, 
    369, 
    370, 
    373, 
    375, 
    376, 
    377, 
    378, 
    381, 
    383, 
    384, 
    385, 
    386, 
    390, 
    392, 
    393, 
    394, 
    395, 
    398, 
    400, 
    401, 
    402, 
    403, 
    407, 
    409, 
    410, 
    411, 
    412, 
    415, 
    417, 
    418, 
    419, 
    420, 
    424, 
    426, 
    427, 
    428, 
    429, 
    432, 
    434, 
    435, 
    436, 
    437, 
    442, 
    443, 
    446
  ], 
  "node_row_ptr": [
    0, 
    1, 
    2, 
    3, 
    4, 
    5, 
    6, 
    7, 
    8, 
    11, 
    12, 
    13, 
    14, 
    15, 
    16, 
    17, 
    18, 
    21, 
    22, 
    23, 
    24, 
    25, 
    26, 
    27, 
    28, 
    31, 
    32, 
    33, 
    34, 
    35, 
    36, 
    37, 
    38, 
    41, 
    42, 
    43, 
    44, 
    45, 
    46, 
    47, 
    48, 
    49, 
    52, 
    53, 
    54, 
    55, 
    56, 
    57, 
    58, 
    59, 
    62, 
    63, 
    64, 
    65, 
    66, 
    67, 
    68, 
    69, 
    72, 
    73, 
    74, 
    75, 
    76, 
    77, 
    78, 
    79, 
    80, 
    83, 
    84, 
    85, 
    86, 
    87, 
    88, 
    89, 
    90, 
    93, 
    94, 
    95, 
    96, 
    97, 
    98, 
    99, 
    100, 
    101, 
    104, 
    105, 
    106, 
    107, 
    108, 
    109, 
    110, 
    111, 
    114, 
    115, 
    116, 
    117, 
    118, 
    119, 
    120, 
    121, 
    124, 
    125, 
    126, 
    127, 
    128, 
    129, 
    130, 
    131, 
    132, 
    135, 
    136, 
    137, 
    138, 
    139, 
    140, 
    141, 
    142, 
    145, 
    146, 
    147, 
    148, 
    149, 
    150, 
    151, 
    152, 
    153, 
    156, 
    157, 
    158, 
    159, 
    160, 
    161, 
    162, 
    163, 
    166, 
    167, 
    168, 
    169, 
    170, 
    171, 
    172, 
    173, 
    174, 
    177, 
    178, 
    179, 
    180, 
    181, 
    182, 
    183, 
    184, 
    187, 
    188, 
    189, 
    190, 
    191, 
    192, 
    193, 
    194, 
    195, 
    198, 
    199, 
    200, 
    201, 
    202, 
    203, 
    204, 
    205, 
    208, 
    209, 
    210, 
    211, 
    212, 
    213, 
    214, 
    215, 
    216, 
    219, 
    220, 
    221, 
    222, 
    223, 
    224, 
    225, 
    226, 
    229, 
    230, 
    231, 
    232, 
    233, 
    234, 
    235, 
    236, 
    237, 
    240, 
    241, 
    242, 
    243, 
    244, 
    245, 
    246, 
    247, 
    250, 
    251, 
    252, 
    253, 
    254, 
    255, 
    256, 
    257, 
    258, 
    261, 
    262, 
    263, 
    264, 
    265, 
    266, 
    267, 
    268, 
    271, 
    272, 
    273, 
    274, 
    275, 
    276, 
    277, 
    278, 
    279, 
    282, 
    283, 
    284, 
    285, 
    286, 
    287, 
    288, 
    289, 
    292, 
    293, 
    294, 
    295, 
    296, 
    297, 
    298, 
    299, 
    302, 
    303, 
    304, 
    305, 
    306, 
    307, 
    308, 
    309, 
    310, 
    313, 
    314, 
    315, 
    316, 
    317, 
    318, 
    319, 
    320, 
    323, 
    324, 
    325, 
    326, 
    327, 
    328, 
    329, 
    330, 
    331, 
    334, 
    335, 
    336, 
    337, 
    338, 
    339, 
    340, 
    341, 
    344, 
    345, 
    346, 
    347, 
    348, 
    349, 
    350, 
    351, 
    352, 
    355, 
    356, 
    357, 
    358, 
    359, 
    360, 
    361, 
    362, 
    365, 
    366, 
    367, 
    368, 
    369, 
    370, 
    371, 
    372, 
    373, 
    376, 
    377, 
    378, 
    379, 
    380, 
    381, 
    382, 
    383, 
    386, 
    387, 
    388, 
    389, 
    390, 
    391, 
    392, 
    393, 
    394, 
    397, 
    398, 
    399, 
    400, 
    401, 
    402, 
    403, 
    404, 
    407, 
    408, 
    409, 
    410, 
    411, 
    412, 
    413, 
    414, 
    415, 
    418, 
    419, 
    420, 
    421, 
    422, 
    423, 
    424, 
    425, 
    428, 
    429, 
    430, 
    431, 
    432, 
    433, 
    434, 
    435, 
    436, 
    439, 
    440, 
    441, 
    442, 
    443, 
    444, 
    445, 
    446, 
    449, 
    450, 
    451, 
    452, 
    453, 
    454, 
    455, 
    456, 
    457, 
    460, 
    461, 
    462, 
    463, 
    464, 
    465, 
    466, 
    467, 
    470, 
    471, 
    472, 
    473, 
    474, 
    475, 
    476, 
    477, 
    480, 
    481, 
    482, 
    483, 
    484, 
    485, 
    486, 
    487, 
    488, 
    491, 
    492, 
    493, 
    494, 
    495, 
    496, 
    497, 
    498, 
    501, 
    502, 
    503, 
    504, 
    505, 
    506, 
    507, 
    508, 
    509, 
    512, 
    513, 
    514, 
    515, 
    516, 
    517, 
    518, 
    519, 
    522, 
    523, 
    524, 
    525, 
    526, 
    527, 
    528, 
    529, 
    530, 
    533, 
    534, 
    535, 
    536, 
    537, 
    538, 
    539, 
    540, 
    543, 
    544, 
    545, 
    546, 
    547, 
    548, 
    549, 
    550, 
    551, 
    552
  ], 
  "heads": [[447, 0, 0]], 
  "attrs": {"mxnet_version": ["int", 10201]}
}